Saved_LSTM_Models/allflights.pt (torch, 5199 bytes, 8 tensors)

lstm.weight_ih_l0 f4 [8, 6]
-0.7623785 0.6794924 -0.23786165 -1.0212431 0.08691585 0.14608641 -1.0276942 -0.43450752
1.5426015 -0.26390433 0.7361885 0.628763 0.3162647 0.16595095 -0.55702025 -0.03035456
0.5680323 0.5698628 -0.35104656 0.10111052 -0.36352727 -0.6817468 0.031140447 0.22297746
0.24765822 0.5472054 0.72182274 -0.10730778 -0.009619407 -0.057308674 0.4474692 0.9131777
-0.39560217 0.50231427 -0.48733872 0.008714476 -0.01732538 1.1305046 -0.7697042 1.9690835
0.63979334 0.5656967 -0.9509571 0.36294043 0.15200554 0.24674183 0.16085634 -0.14144962
00000000: 3d2b 43bf 37f3 2d3f 0192 73be 18b8 82bf
00000010: f000 b23d ad97 153e 7c8b 83bf c577 debe
00000020: f773 c53f 781e 87be d976 3c3f 9df6 203f
00000030: 72ed a13e 0cef 293e e198 0ebf 20aa f8bc
00000040: 916a 113f 87e2 113f 60bc b3be 0813 cf3d
00000050: 3f20 babe f586 2ebf 401a ff3c 3454 643e
00000060: 1e9a 7d3e a715 0c3f 60c9 383f 2ec4 dbbd
00000070: b89a 1dbc 80bc 6abd af1a e53e 04c6 693f
00000080: 5e8c cabe ab97 003f 7684 f9be 29c7 0e3c
00000090: f5ed 8dbc 60b4 903f 560b 45bf ee0a fc3f
000000a0: 7fc9 233f 80d1 103f ed71 73bf 54d3 b93e
000000b0: 57a7 1b3e e4a9 7c3e 86b7 243e 2bd8 10be

lstm.weight_hh_l0 f4 [8, 2]
0.70637435 0.12311238 -0.70097625 -0.100676596 0.39129883 -0.1315502 0.43052787 -0.12504196
0.5066615 -0.6699793 -0.20692325 -0.19442272 0.2656235 0.469819 -0.57242084 -0.23060817
00000000: f3d4 343f 5822 fc3d 2e73 33bf 882f cebd
00000010: 5258 c83e 18b5 06be 266e dc3e 000b 00be
00000020: 91b4 013f c383 2bbf b0e3 53be c016 47be
00000030: ceff 873e 1e8c f03e 2c8a 12bf 8c24 6cbe

lstm.bias_ih_l0 f4 [8]
0.3382805 0.3238479 0.010827005 0.11500585 -0.44688094 0.83675116 0.4246005 -0.526326
00000000: 1a33 ad3e 64cf a53e c063 313c 3088 eb3d
00000010: 94cd e4be 5335 563f 3d65 d93e 4dbd 06bf

lstm.bias_hh_l0 f4 [8]
0.6492796 0.4867422 0.4972064 -0.0017222762 0.5607844 0.51277566 1.1191974 -0.1320081
00000000: 3037 263f 4636 f93e d691 fe3e 00be e1ba
00000010: 918f 0f3f 4445 033f dc41 8f3f 222d 07be

fc_1.weight f4 [128, 2]
0.24052024 -0.33368233 0.57048786 0.72236186 -0.22618333 -0.32940307 -0.53077674 -0.04957682
1.5780716 -0.5247633 0.38519478 -0.9045179 0.46581483 1.2431501 -0.5848134 0.16898334
0.38115042 -0.20135552 0.57047874 -1.1088318 0.3509143 0.3419724 0.44953072 -0.17099705
-0.45490828 -0.21883199 -0.54340506 -0.41586044 -0.39910123 -0.19193012 -0.5621073 1.0451771
-0.24236259 0.9797681 0.9325879 0.37380826 0.6647251 0.22108497 0.40509352 -0.20442057
0.511541 -0.23556039 0.82560194 -0.7587072 -0.4991554 -0.6811282 -0.4903314 0.41908628
-0.46208018 -0.647697 0.35698962 -0.45031723 -0.28900963 0.23648024 0.39090657 -0.16816571
-0.6132046 0.37192878 -0.43330827 -0.13558269 0.6703262 -0.82894695 0.3543747 0.1756925
0.44718128 0.04720515 -0.39332306 -0.26043752 -0.49908265 0.11448592 0.71464145 0.17189106
0.7314812 -0.45265788 -0.29627946 -0.5259985 0.08376331 0.6543625 -0.40880242 -0.3960508
-0.31528386 0.2116547 0.43459693 0.36634547 0.22687066 0.40834343 0.30056116 0.25518712
0.8666773 -0.63377124 -0.19163525 -0.6660269 -0.44506532 -0.4284028 -0.16524215 1.2279817
0.19558127 0.027362062 -0.4380916 -0.45116347 -0.25980732 -0.4403191 -0.3115951 -0.35352
0.31696373 -0.4370666 -0.046044745 -0.24170001 0.56426483 -0.41130435 -0.13755462 0.13848911
0.7155231 -0.76396877 -0.2678444 -0.56230724 -0.35933012 0.46880788 0.07180685 -0.68244237
0.18531466 0.325036 -0.6911233 -0.1288304 0.020220399 0.5638949 -0.75982124 0.14198698
-0.032583058 -0.53413045 0.010252655 -0.4169532 0.49628866 0.9515883 -0.34291568 0.091393106
-0.22221269 -0.196016 0.10073699 0.24974562 -0.46772665 0.08871857 1.1423793 -0.2654781
-0.2534954 -0.49947137 0.52160573 1.9129509 0.16199881 -0.27300704 0.27427667 0.501226
0.4752198 -0.5460065 0.97532356 -1.4758571 -0.009878326 0.109822445 -0.21865255 -0.14504963
0.6899239 -0.081258826 -0.87094814 0.22019657 -0.32773188 -0.18586421 -0.017128646 -0.28239653
-0.15639977 0.67498213 -0.38914105 -0.036625132 -0.7124956 0.5151386 -0.004745059 0.6407541
-0.45807976 -0.43282637 -0.074138165 -0.4570621 -0.020500064 -0.16070384 -0.11508521 0.4851903
0.17239533 -0.22049777 1.3722744 0.097537525 0.5864758 -0.27149716 -0.06288876 0.022932742
-0.5398276 -0.02829916 -0.31928897 -1.7055923 1.2879041 -0.36412805 -1.2881731 0.7083725
0.055599052 -0.17666459 0.024907172 -0.33963582 -0.33283958 0.3772957 -0.041004065 1.1056914
-0.31611973 0.772058 0.16342074 0.24589993 0.47551352 -0.2668048 0.15290824 0.42889044
0.44163623 1.3876275 0.17271525 -0.4564947 0.098233335 -0.12836106 -0.3955556 0.4036855
-0.70479816 0.65068036 0.12503576 -0.510879 0.26231253 0.2154373 -0.47005957 0.38174543
0.7561095 0.94425726 0.605218 -0.07044375 -0.47692496 -0.43201146 -0.53501177 0.5827399
0.080586664 0.47792467 0.13582921 0.560809 0.65644896 0.15883745 0.40196243 -0.3938183
-0.372811 -0.78302187 0.16620314 -0.04234076 0.25370187 0.6270134 0.12362704 -0.6138012
00000000: f04a 763e 69d8 aabe 7e0b 123f b5ec 383f
00000010: 9a9c 67be 85a7 a8be fce0 07bf 1011 4bbd
00000020: 40fe c93f e356 06bf 4038 c53e 7c8e 67bf
00000030: 487f ee3e 8b1f 9f3f 55b6 15bf f809 2d3e
00000040: 2626 c33e 2430 4ebe e50a 123f 33ee 8dbf
00000050: 0aab b33e 0217 af3e e428 e63e da19 2fbe
00000060: bde9 e8be 7e15 60be 981c 0bbf a9eb d4be
00000070: ff56 ccbe 5489 44be 44e6 0fbf 5dc8 853f
00000080: e62d 78be 15d2 7a3f 15be 6e3f cc63 bf3e
00000090: 6d2b 2a3f 1964 623e 6b68 cf3e a053 51be
000000a0: 5af4 023f be36 71be a65a 533f a33a 42bf
000000b0: 4c91 ffbe 6b5e 2ebf b80c fbbe 7a92 d63e
000000c0: c695 ecbe 78cf 25bf 58c7 b63e fb8f e6be
000000d0: 12f9 93be e027 723e e824 c83e a233 2cbe
000000e0: fafa 1cbf 736d be3e 95da ddbe 30d6 0abe
000000f0: 7f9a 2b3f de35 54bf 9a70 b53e bce8 333e
00000100: f2f4 e43e 305a 413d a461 c9be 1158 85be
00000110: c387 ffbe 9877 ea3d bef2 363f 3604 303e
00000120: 5a42 3b3f c6c2 e7be f1b1 97be d6a7 06bf
00000130: 198c ab3d 4d84 273f 8d4e d1be 2cc7 cabe
00000140: e36c a1be 02bc 583e 7d83 de3e a291 bb3e
00000150: c850 683e 6412 d13e 27e3 993e e3a7 823e
00000160: 90de 5d3f d53e 22bf 083c 44be bd80 2abf
00000170: 9adf e3be 9d57 dbbe 3d35 29be 812e 9d3f
00000180: 7546 483e 6726 e03c 8b4d e0be e6fe e6be
00000190: 7705 85be 8171 e1be 6589 9fbe 9300 b5be
000001a0: 1249 a23e 32c7 dfbe 6a99 3cbd 3580 77be
000001b0: a973 103f 7c96 d2be 1edb 0cbe 17d0 0d3e
000001c0: 862c 373f 7593 43bf e722 89be 5ef3 0fbf
000001d0: 1efa b7be 9607 f03e 780f 933d 8bb4 2ebf
000001e0: 20c3 3d3e 1e6b a63e 75ed 30bf 1eec 03be
000001f0: 40a5 a53c 6b5b 103f a583 42bf 0965 113e
00000200: d075 05bd c6bc 08bf c0fa 273c e47a d5be
00000210: 8c19 fe3e 4a9b 733f a592 afbe 4f2c bb3d
00000220: b98b 63be 6bb8 48be 324f ce3d 51bd 7f3e
00000230: de79 efbe 15b2 b53d 7c39 923f bfec 87be
00000240: 26ca 81be b6ba ffbe f487 053f 93db f43f
00000250: 04e3 253e 94c7 8bbe fe6d 8c3e 5950 003f
00000260: 0250 f33e 15c7 0bbf ceae 793f e3e8 bcbf
00000270: b4d8 21bc 97ea e03d 74e6 5fbe e487 14be
00000280: da9e 303f 076b a6bd 75f6 5ebf 367b 613e
00000290: 79cc a7be 3053 3ebe 6051 8cbc 4796 90be
000002a0: 4327 20be a1cb 2c3f 7f3d c7be 3c04 16bd
000002b0: 1d66 36bf 20e0 033f 717c 9bbb 7608 243f
000002c0: 6e89 eabe 6b9b ddbe c0d5 97bd 0b04 eabe
000002d0: c0ef a7bc 8c8f 24be cbb1 ebbd dd6a f83e
000002e0: 6788 303e 2bca 61be b0a6 af3f c1c1 c73d
000002f0: 4723 163f ad01 8bbe d2cb 80bd 72dd bb3c
00000300: 2432 0abf a4d3 e7bc d879 a3be d950 dabf
00000310: 0bda a43f fe6e babe dbe2 a4bf e657 353f
00000320: d5bb 633d 90e7 34be 200a cc3c bfe4 adbe
00000330: f369 aabe e72c c13e e1f3 27bd 4c87 8d3f
00000340: 72da a1be 98a5 453f c457 273e 31cd 7b3e
00000350: 8276 f33e a49a 88be fa93 1c3e 8797 db3e
00000360: 251e e23e c79d b13f 44dc 303e acb9 e9be
00000370: 8f2e c93d 1571 03be 4386 cabe deaf ce3e
00000380: a76d 34bf fd92 263f 6009 003e f7c8 02bf
00000390: d44d 863e 989b 5c3e a6ab f0be 2374 c33e
000003a0: 6490 413f d8ba 713f 91ef 1a3f d044 90bd
000003b0: 822f f4be 9b30 ddbe 88f6 08bf 712e 153f
000003c0: 9f0a a53d 8bb2 f43e d016 0b3e 2e91 0f3f
000003d0: 0a0d 283f 49a6 223e 05ce cd3e 8da2 c9be
000003e0: 15e1 bebe 1f74 48bf 2831 2a3e 816d 2dbd
000003f0: 36e5 813e f383 203f 2c30 fd3d 1322 1dbf

fc_1.bias f4 [128]
-0.33411914 -0.4564592 -0.660659 -0.26061934 -0.35325837 0.4883438 -0.10598369 -0.21511185
0.48852277 0.14935936 -0.5328582 -0.2913585 -0.141271 0.6577495 -0.3606821 -0.4995387
0.08434054 -0.531957 0.17443308 -0.27098867 0.62521523 0.47704738 -0.2523964 0.30132392
-0.42920437 0.08675126 -0.6503725 0.34564218 0.6047397 -0.27919698 0.18383381 -0.6810404
-0.59584534 -0.6558379 -0.56524134 0.50460815 0.31545293 0.28101885 0.27015126 -0.040816247
0.27908817 0.4414071 0.53170955 0.6544208 0.042968407 -0.49371636 -0.39051634 -0.6063212
0.39222297 -0.5834732 -0.46559024 -0.7033481 -0.2771088 0.26489887 -0.6552797 0.6474916
0.4123692 -0.13497138 -0.626592 -0.27425984 -0.52325845 0.58274096 -0.5559246 0.30837268
-0.091843486 -0.47475204 -0.46682745 0.42920798 0.62102157 -0.24926229 0.5886941 -0.4591051
0.5504264 -0.9462976 -0.15806687 0.24595092 0.094459236 -0.07226916 0.09641943 -0.6467407
0.14470321 0.6582606 -0.13519359 -0.64068013 0.23818742 0.39713085 0.5826091 0.6460608
-0.11571813 -0.56260866 -0.6917785 0.3537274 0.700075 -0.56533253 0.45106003 0.48538497
0.54954004 0.46614617 -0.2846768 0.050568067 0.5593339 -0.6982955 0.18054383 -0.30486888
0.60267895 0.37982938 -0.43798262 0.0795379 -0.5907676 -0.5486146 0.20615196 -0.66557807
-0.58407164 -0.50916636 -0.50426793 0.66406983 -0.8029443 -0.5013249 0.33072665 -0.70390326
0.50968325 0.03153468 0.33302543 0.46346888 0.37900013 0.53164303 0.39347503 0.58114654
00000000: aa11 abbe 05b5 e9be f320 29bf e66f 85be
00000010: 48de b4be 3308 fa3e fa0d d9bd 4846 5cbe
00000020: a81f fa3e a9f1 183e 6569 08bf f12c 95be
00000030: 58a9 10be 4562 283f 53ab b8be 89c3 ffbe
00000040: bcba ac3d 552e 08bf 969e 323e 07bf 8abe
00000050: 1b0e 203f 8e3f f43e 1a3a 81be 2147 9a3e
00000060: adc0 dbbe a5aa b13d d07e 26bf 03f8 b03e
00000070: 39d0 1a3f e8f2 8ebe ee3e 3c3e aa58 2ebf
00000080: 5289 18bf fee4 27bf a8b3 10bf 002e 013f
00000090: 0c83 a13e b4e1 8f3e 4451 8a3e f02e 27bd
000000a0: a5e4 8e3e 1d00 e23e 1e1e 083f 1f88 273f
000000b0: a4ff 2f3d 64c8 fcbe c2f1 c7be de37 1bbf
000000c0: 73d1 c83e 805e 15bf d861 eebe 9f0e 34bf
000000d0: 34e1 8dbe d3a0 873e 69c0 27bf 02c2 253f
000000e0: 0e22 d33e f035 0abe 5568 20bf c96b 8cbe
000000f0: 44f4 05bf 832e 153f 1351 0ebf 06e3 9d3e
00000100: 7018 bcbd b312 f3be 0204 efbe 26c1 db3e
00000110: 45fb 1e3f 9d3e 7fbe a8b4 163f d30f ebbe
00000120: bfe8 0c3f 8f40 72bf 48dc 21be 8fda 7b3e
00000130: d873 c13d da01 94bd 8d77 c53d cc90 25bf
00000140: 142d 143e c483 283f 3070 0abe 9d03 24bf
00000150: 67e7 733e bc54 cb3e df25 153f 3e64 253f
00000160: a0fd ecbd 1f07 10bf 6518 31bf c21b b53e
00000170: 1d38 333f a2b9 10bf 57f1 e63e 6184 f83e
00000180: a8ae 0c3f b6aa ee3e 28c1 91be 7620 4f3d
00000190: 8230 0f3f 7ec3 32bf 7be0 383e c617 9cbe
000001a0: 2b49 1a3f ff78 c23e 423f e0be c4e4 a23d
000001b0: 8c3c 17bf 0272 0cbf 8019 533e 5363 2abf
000001c0: b885 15bf ba58 02bf b417 01bf 7b00 2a3f
000001d0: c28d 4dbf d456 00bf 0155 a93e 0133 34bf
000001e0: 9a7a 023f 822a 013d 4f82 aa3e cb4b ed3e
000001f0: 4e0c c23e c219 083f 8f75 c93e 05c6 143f

fc.weight f4 [2, 128]
0.07211659 0.37713933 -0.06832568 -0.06811587 -0.83678347 0.045771606 -0.17463648 0.05243487
0.054904494 0.110470325 -0.08573525 0.04989137 0.07809997 -0.06481772 0.014150202 -0.985407
0.12726834 -0.28488752 0.07242687 0.047295254 0.085833475 0.09799661 -0.0074303 -0.04371744
0.07185046 -0.013120932 -0.04073533 0.06631 0.074473426 0.071828105 0.101610444 -0.052770972
-0.029763091 0.04205423 -0.0069441497 0.04407665 0.049414564 0.09525557 -0.03673513 0.00029671192
-0.022674209 -0.0025421404 0.080004364 -0.061249096 0.14944264 0.044212572 0.033235878 -1.5876607
-0.00838012 -0.0041994452 -0.06900003 -0.021679483 0.040111296 -0.035069305 -0.04354192 -0.057148587
0.050824877 0.076567836 -0.07961408 0.07392276 0.06329995 0.071396366 0.05837237 0.42339477
-0.07300762 -0.08348867 -0.32420832 -0.06417477 0.025822693 -0.030965652 0.025573082 0.23077781
-0.050349064 -1.618616 -0.0034501106 -0.04814666 -0.042289738 -0.2741319 -0.032903038 -0.0344949
0.03947913 -0.06413756 -0.024588786 -0.08274951 0.055038575 -0.0050483625 -0.046340805 0.009832826
0.052673675 0.087014355 -0.08060239 0.07498263 0.06615077 0.9162764 0.040476996 0.07781197
0.047321837 -0.20903741 -0.76368314 0.2540864 -0.005560986 -0.018876687 0.08412884 0.65892285
-0.044382673 0.09220834 -0.0054425076 -0.038766004 1.3949862 -0.044080935 0.06586591 -0.009158269
-0.026221324 -0.018151373 -0.0666566 -0.007530836 0.71501774 -0.0058276355 0.027776193 -0.03836162
-0.06068191 -0.04130201 0.015453105 -0.023584161 -0.0038951973 -0.028207881 0.051832225 0.07716045
-0.059581798 0.8033378 0.07404529 -0.05346625 -0.6648085 0.054910164 -0.3628135 -0.035892773
-0.04076627 -0.17201205 0.082812734 -0.068578765 -0.024960846 0.036229234 0.063916974 -0.7360044
-0.30420637 0.43866363 0.10453972 -0.06383153 0.07675702 0.12783034 0.0044387504 -0.0709736
0.02802857 0.15658052 0.061829306 0.034887623 -0.025186324 -0.021890938 0.11584543 0.07057124
-0.075526685 0.032295235 0.009218246 0.07824114 0.058663085 0.023953946 -0.066909745 0.06305713
0.06578262 0.05490279 0.04065282 -0.018305475 0.18815076 -0.030985381 -0.05075212 0.04170071
-0.03560194 0.08439595 -0.0817046 0.07785273 0.0764808 0.072071984 -0.08102979 0.09803102
0.063794225 0.07175692 -0.057871837 -0.08687246 0.033155143 -0.0014333933 -0.018099152 0.53822803
-0.081821755 -0.046994884 0.44062546 -0.020409755 -0.039341833 0.050017983 -0.054228924 0.84596556
0.09516342 -0.4417166 0.044823326 0.077912144 0.1626456 1.2045404 0.07066028 0.014126748
0.11568011 -0.03886588 -0.015459441 0.06543287 -0.07277049 0.068497434 -0.046239577 -0.06238807
-0.011562906 0.05297468 0.07533478 -0.021724246 0.021630853 0.5845638 0.07671303 -0.016315518
0.018974064 -0.4625936 -0.5402806 0.80680174 -0.054082826 -0.04029053 0.05432729 -0.008944965
-0.0663686 0.014483694 0.011658892 -0.025622262 1.3074701 -0.074688874 0.02212394 0.06422233
-0.076508105 0.046521403 -0.012911126 0.03954462 -1.1563872 0.066402756 -0.0009387863 0.08039763
0.0013581301 0.012310396 0.031427957 0.049660556 0.13639033 0.074991815 -0.06857655 0.043425694
00000000: ddb1 933d 6818 c13e 56ee 8bbd 5580 8bbd
00000010: 7137 56bf 027b 3b3d e8d3 32be f2c5 563d
00000020: 89e3 603d 443e e23d f695 afbd e55a 4c3d
00000030: e1f2 9f3d 27bf 84bd 40d6 673c a243 7cbf
00000040: a252 023e c7dc 91be 8a54 943d abb8 413d
00000050: 76c9 af3d 72b2 c83d e079 f3bb 0f11 33bd
00000060: 5526 933d 2df9 56bc 17da 26bd 8acd 873d
00000070: 8685 983d 9d1a 933d 2319 d03d 6026 58bd
00000080: bad1 f3bc 0e41 2c3d c08b e3bb b889 343d
00000090: ed66 4a3d 5a15 c33d 9377 16bd 0090 9b39
000000a0: 43bf b9bc 0a9a 26bb 54d9 a33d 55e0 7abd
000000b0: 7e07 193e 3e18 353d 5822 083d 7738 cbbf
000000c0: c54c 09bc 809b 89bb e34f 8dbd 2c99 b1bc
000000d0: be4b 243d d5a4 0fbd 0359 32bd a314 6abd
000000e0: bf2d 503d 99cf 9c3d b50c a3bd d164 973d
000000f0: 67a3 813d 4238 923d de17 6f3d 33c7 d83e
00000100: 0585 95bd 1cfc aabd a2fe a5be 106e 83bd
00000110: 1d8a d33c aeab fdbc a47e d13c 0551 6c3e
00000120: d23a 4ebd cf2e cfbf 401b 62bb 6f35 45bd
00000130: 0138 2dbd 045b 8cbe 56c5 06bd 864a 0dbd
00000140: deb4 213d 8e5a 83bd 6c6e c9bc 9378 a9bd
00000150: 2170 613d bc6c a5bb dbcf 3dbd dd19 213c
00000160: 5ac0 573d 9534 b23d de12 a5bd 7e90 993d
00000170: 0e7a 873d 1791 6a3f 35cb 253d e25b 9f3d
00000180: 8bd4 413d e70d 56be bd80 43bf 9d17 823e
00000190: ef38 b6bb 48a3 9abc be4b ac3d 2baf 283f
000001a0: 9bca 35bd bad7 bc3d 1057 b2bb 1ac9 1ebd
000001b0: e88e b23f 368e 34bd b5e4 863d 900c 16bc
000001c0: 1ace d6bc 30b2 94bc 4183 88bd 3bc5 f6bb
000001d0: 670b 373f c0f5 bebb e68a e33c 1321 1dbd
000001e0: 988d 78bd 4c2c 29bd 052f 7d3c 9233 c1bc
000001f0: 9146 7fbb 3714 e7bc 074e 543d 4c06 9e3d
00000200: 0b0c 74bd 8ca7 4d3f 0fa5 973d 6dff 5abd
00000210: e430 2abf 7be9 603d b1c2 b9be 4d04 13bd
00000220: 88fa 26bd ed23 30be b999 a93d 0673 8cbd
00000230: b07a ccbc 1b65 143d e7e6 823d c96a 3cbf
00000240: f0c0 9bbe 8598 e03e ec18 d63d 1bba 82bd
00000250: c932 9d3d f5e5 023e f072 913b 9b5a 91bd
00000260: 2c9c e53c a556 203e ba40 7d3d 53e6 0e3d
00000270: 8d53 cebc a054 b3bc 5e40 ed3d a787 903d
00000280: bcad 9abd 0248 043d 2008 173c e43c a03d
00000290: b448 703d 113b c43c fa07 89bd 1924 813d
000002a0: 0ab9 863d bfe1 603d 9283 263d 5df5 95bc
000002b0: 98aa 403e 0ed5 fdbc 74e1 4fbd 5dce 2a3d
000002c0: 57d3 11bd c9d7 ac3d be54 a7bd 4171 9f3d
000002d0: f7a1 9c3d 7a9a 933d f2f2 a5bd 7dc4 c83d
000002e0: 8ca6 823d 4bf5 923d 050b 6dbd 30ea b1bd
000002f0: b0cd 073d b3e0 bbba ac44 94bc 50c9 093f
00000300: 2a92 a7bd b57d 40bd a999 e13e 5c32 a7bc
00000310: e724 21bd a8df 4c3d 261f 5ebd 3391 583f
00000320: 0ae5 c23d ae28 e2be aa98 373d 6790 9f3d
00000330: 918c 263e 612e 9a3f 56b6 903d e073 673c
00000340: b2e9 ec3d d431 1fbd 9849 7dbc ab01 863d
00000350: b208 95bd 6248 8c3d b665 3dbd a28a 7fbd
00000360: 5872 3dbc fafb 583d 1f49 9a3d 0cf7 b1bc
00000370: 3033 b13c f9a5 153f b91b 9d3d 1fa8 85bc
00000380: 7f6f 9b3c 11d9 ecbe d44f 0abf 8f8a 4e3f
00000390: f485 5dbd af07 25bd 4b86 5e3d e78d 12bc
000003a0: 43ec 87bd 044d 6d3c f004 3f3c c7e5 d1bc
000003b0: 2e5b a73f 7bf6 98bd 443d b53c ff86 833d
000003c0: 48b0 9cbd 3a8d 3e3d 3089 53bc 8af9 213d
000003d0: 7f04 94bf 2bfe 873d e218 76ba 83a7 a43d
000003e0: 4903 b23a 8bb1 493c 9aba 003d de68 4b3d
000003f0: e8a9 0b3e 4f95 993d dd71 8cbd 24df 313d

fc.bias f4 [2]
0.08410209 0.09827714
00000000: b73d ac3d 8645 c93d
