Saved_LSTM_Models/flight0.pt (torch, 5199 bytes, 8 tensors)

lstm.weight_ih_l0 f4 [8, 5]
0	0x3c5f83dd	0.0136422785
1	0xbe585551	-0.21126296
2	0x3e98fa74	0.2987858
3	0x3eebe274	0.46071208
4	0x3ecbb011	0.39782766
5	0x3d593222	0.053026326
6	0xbeefbace	-0.46822208
7	0xbc11b898	-0.008894108
8	0xbecef0dd	-0.4041814
9	0xbe719994	-0.23593742
10	0x3eba5632	0.36393887
11	0x3ebec572	0.37260014
12	0x3ec84b76	0.39120072
13	0xbf20df01	-0.62840277
14	0xbee5eb1a	-0.4490593
15	0x3dd36750	0.1032244
16	0x3efc71f2	0.49305683
17	0x3e2b5888	0.1673299
18	0x3e206bd4	0.15666133
19	0xbef82870	-0.4846835
20	0x3eac5e2e	0.33665603
21	0x3ea67555	0.32511392
22	0x3c99eece	0.018790629
23	0x3d9fdaa1	0.07805372
24	0xbe6dad5f	-0.23210667
25	0x3d85639e	0.06513141
26	0x3cdadca5	0.02671654
27	0xbd07b104	-0.0331278
28	0xbf2ef72f	-0.6834592
29	0x3e49899d	0.19681402
30	0x3b37f484	0.0028069327
31	0xbe91cd9e	-0.28477186
32	0xbe876ff3	-0.26452598
33	0x3f58621c	0.84524703
34	0x3ec3cc56	0.38241833
35	0x3d09b839	0.033622954
36	0x3ecb449b	0.3970078
37	0x3dae851f	0.085214846
38	0xbf28d4aa	-0.659495
39	0xbe3dbc2d	-0.18528815

lstm.weight_hh_l0 f4 [8, 2]
0	0x3e5f3c88	0.21800435
1	0x3eb91296	0.36146992
2	0xbf10e5e8	-0.5660081
3	0x3f1475ed	0.5799244
4	0xbc00a300	-0.007851362
5	0x3f25ba0f	0.6473703
6	0x3e4f0e9c	0.20220417
7	0xbebcadde	-0.368514
8	0x3e90e826	0.28302115
9	0x3daeb658	0.08530873
10	0x3f13e48b	0.57770604
11	0x3f2fa359	0.68608624
12	0x3e2b721c	0.16742748
13	0x3e2f1b8c	0.17100352
14	0x3e51d6e8	0.20492136
15	0xbe41d708	-0.18929684

lstm.bias_ih_l0 f4 [8]
0	0x3eaaa8c2	0.33331877
1	0xbe54ae93	-0.2076972
2	0xbf114ab3	-0.56754607
3	0xbdd8e680	-0.105908394
4	0x3ef2347e	0.47305673
5	0xbe5dfb86	-0.2167798
6	0x3ef99408	0.4874575
7	0xbe186502	-0.14882281

lstm.bias_hh_l0 f4 [8]
0	0x3e9d9029	0.30774048
1	0xbd43a636	-0.047765933
2	0x3f2d8459	0.6778007
3	0xbe847b6a	-0.25875407
4	0x3f5a998a	0.8539053
5	0x3f32a2a8	0.69779444
6	0xbea37d9e	-0.31931776
7	0x3e86b3c4	0.26309025

fc_1.weight f4 [128, 2]
0	0xbec6b790	-0.38811922
1	0x3f24b518	0.6433883
2	0xbe57a0a0	-0.21057367
3	0x3ef01a9e	0.46895307
4	0xbe440afd	-0.19144817
5	0x3f104a50	0.5636339
6	0xbe87acca	-0.26499015
7	0xbe7eeb08	-0.24894345
8	0xbf349211	-0.7053538
9	0x3e278480	0.16359138
10	0x3d215156	0.03938421
11	0xbf3a031c	-0.72660995
12	0x3eb93892	0.36175972
13	0xbee366ad	-0.44414273
14	0x3d8b5fa0	0.068053484
15	0xbee95083	-0.45569238
16	0x3e929971	0.28632692
17	0x3f340211	0.70315653
18	0xbe927517	-0.28604957
19	0x3e4e5808	0.20150769
20	0x3e7278dc	0.23678917
21	0xbea77d2a	-0.3271268
22	0x3ea81f6e	0.3283648
23	0xbef6a97f	-0.4817619
24	0x3e09d8b0	0.13461566
25	0xbe2fdba8	-0.17173636
26	0xbda20c30	-0.07912481
27	0x3d02fb40	0.031977892
28	0x3f1fb9bb	0.6239278
29	0x3f00d285	0.5032123
30	0xbe641d50	-0.22276807
31	0x3f66ffa8	0.9023385
32	0xbc24e958	-0.010065399
33	0xbe910847	-0.28326628
34	0x3f153736	0.5828737
35	0xbee54ccd	-0.44785157
36	0xbf2353f5	-0.63799983
37	0xbef63af2	-0.48091847
38	0x3ee673c4	0.45010197
39	0xbeb7ae5d	-0.35875216
40	0x3d7eacaf	0.062176403
41	0x3e92ec04	0.2869569
42	0x3ec6430a	0.38723022
43	0xbec09d20	-0.37619877
44	0xbee9f194	-0.45692122
45	0x3ef1bb74	0.47213328
46	0xbec0a8c6	-0.37628764
47	0x3e53b77b	0.20675461
48	0x3f53c193	0.82717246
49	0xbedf9ab6	-0.43672723
50	0x3dd7833f	0.1052308
51	0x3d9974eb	0.074930035
52	0xbf470110	-0.77735996
53	0x3d90df7a	0.07073875
54	0xbe9c530d	-0.30532113
55	0x3f024b09	0.50895745
56	0xbee968e0	-0.45587826
57	0xbecd7218	-0.4012611
58	0xbeb3a0ca	-0.3508361
59	0x3c985960	0.018597305
60	0x3e5386e7	0.2065693
61	0x3f165184	0.5871813
62	0x3f278054	0.6543019
63	0x3effd4e0	0.49967098
64	0xbf34e06c	-0.7065494
65	0x3ef34efa	0.47521192
66	0x3f254bf2	0.6456901
67	0x3ed80b68	0.42196202
68	0x3f687ede	0.90818584
69	0xbf6fcce4	-0.93672013
70	0xbe67b43b	-0.22627346
71	0x3f1a8eb7	0.60374016
72	0x3eee601a	0.46557695
73	0x3dab2508	0.083566725
74	0x3ea88448	0.32913423
75	0x3e3a906c	0.18219155
76	0x3e86f300	0.2635727
77	0x3f0ed6f6	0.55796754
78	0x3f5cb9bc	0.8622091
79	0x3f6e0698	0.9297881
80	0xbe9a138e	-0.30093044
81	0x3ec5135b	0.3849133
82	0x3e6211d0	0.22077107
83	0xbf1cb02b	-0.6120631
84	0xbf244e7a	-0.64182246
85	0xbea047b4	-0.31304705
86	0xbfda484d	-1.7053314
87	0x3f644241	0.89163595
88	0xbf29a05c	-0.66260314
89	0x3dbdee77	0.09273999
90	0x3ef7529a	0.48305207
91	0x3db49848	0.08818108
92	0xbf04fd72	-0.51949227
93	0xbf2c7d77	-0.67378944
94	0x3e5d458c	0.21608561
95	0xbdea5fe0	-0.11444068
96	0xbeabb7a1	-0.33538535
97	0x3ece921e	0.40345854
98	0xbf00135c	-0.5002954
99	0xbe9ce854	-0.30646002
100	0xbe766ec5	-0.24065693
101	0xbf5049ea	-0.81362784
102	0x3f641066	0.8908752
103	0x3e97fed9	0.2968662
104	0xbf6943f5	-0.9111932
105	0x3f52a3bd	0.82281095
106	0xbf06d4ac	-0.5266826
107	0x3ef8662a	0.48515445
108	0x3e96627a	0.29372007
109	0xbeadaaff	-0.33919522
110	0x3e4589cc	0.19290847
111	0xbf250421	-0.64459425
112	0x3f4bd40c	0.7962043
113	0x3f095ca6	0.53656995
114	0xbdcea410	-0.10089886
115	0xbf0c0779	-0.546989
116	0x3e666ac8	0.22501671
117	0x3f15b82f	0.58484167
118	0xbe1f1be0	-0.15537977
119	0x3e2ea1ac	0.1705386
120	0x3db024a0	0.08600736
121	0xbf093567	-0.5359711
122	0xbd20ea70	-0.039286077
123	0x3ea755b6	0.3268258
124	0xbb832d00	-0.004003167
125	0x3ee45a4d	0.44600144
126	0xbe0f23fe	-0.13978574
127	0x3f227d52	0.63472474
128	0xbe7220fa	-0.23645392
129	0xbb8ba880	-0.00426203
130	0x3cef7d20	0.029234469
131	0x3dcccc88	0.09999949
132	0x3f0ca427	0.54937977
133	0xbdba9f2e	-0.09112392
134	0x3f3e2c75	0.74286586
135	0xbe28aa54	-0.16471225
136	0xbe67146c	-0.22566384
137	0x3f4c1c72	0.79730904
138	0x3efd2e4e	0.4944939
139	0x3eae896a	0.34089214
140	0x3d99b498	0.07505149
141	0x3efbe917	0.4920127
142	0x3d16649b	0.03671704
143	0xbf43920f	-0.7639474
144	0xbf51d3e6	-0.81963956
145	0x3ee86935	0.45392767
146	0xbe689110	-0.22711587
147	0x3e8b6a40	0.272295
148	0xbf16315a	-0.58669055
149	0xbe9a4546	-0.30130976
150	0xbe54740c	-0.20747393
151	0xbe9344a9	-0.2876332
152	0xbc2b0880	-0.010439038
153	0xbe8665b2	-0.26249462
154	0xbeee913d	-0.46595183
155	0x3ecc8cb3	0.39951095
156	0x3e909ba8	0.28243756
157	0xbe0bfab8	-0.1366986
158	0x3eec795f	0.4618635
159	0xbf2710c0	-0.65259933
160	0x3ed155ba	0.40885717
161	0xbea1c928	-0.31598783
162	0xbd080b0c	-0.03321366
163	0xbe2f750d	-0.17134495
164	0x3e8b069e	0.27153486
165	0xbe27503c	-0.163392
166	0x3e8de013	0.27710018
167	0x3ee8049f	0.45316026
168	0x3f10e2eb	0.5659625
169	0xbf028fc8	-0.5100064
170	0xbe960597	-0.2930114
171	0x3f0bb8a1	0.54578596
172	0x3e8a6cb4	0.2703606
173	0xbf09933f	-0.53740305
174	0xbe930177	-0.28712055
175	0xbe5b02d0	-0.21387792
176	0xbef9575e	-0.48699468
177	0x3eaa600e	0.3327641
178	0x3e482e36	0.19548878
179	0xbefb3938	-0.49067092
180	0xbec667ae	-0.38750976
181	0x3ee0d1ac	0.43909967
182	0x3be48100	0.006973386
183	0x3e83e31a	0.25759202
184	0x3d66afd0	0.05632001
185	0x3e6f5764	0.2337318
186	0x3dde97f8	0.108688295
187	0x3e822bc6	0.2542402
188	0xbeb7646e	-0.3581881
189	0xbead1d6b	-0.33811507
190	0x3e992846	0.2991354
191	0x3f02cc2d	0.510928
192	0xbe8acb44	-0.27108204
193	0x3d389ed0	0.04507333
194	0xbc8ff140	-0.017571092
195	0x3ee49a5d	0.4464902
196	0xbe98a153	-0.2981058
197	0x3f069fd4	0.5258763
198	0xbeb1a781	-0.34698108
199	0xbf147706	-0.57994115
200	0xbf8b7379	-1.0894614
201	0xbddb2a98	-0.107014835
202	0xbcb0fd20	-0.021605074
203	0xbf2622c8	-0.6489682
204	0x3ee8db36	0.45479745
205	0xbefb0c9d	-0.4903306
206	0x3f277a60	0.65421104
207	0x3ee81da2	0.45335108
208	0x3dc56510	0.09638417
209	0xbe275570	-0.16341186
210	0xbf05db72	-0.5228797
211	0xbf05aca4	-0.52216554
212	0xbc63a440	-0.013894141
213	0x3d00c870	0.031441152
214	0x3f25fedd	0.64842016
215	0x3de42aee	0.11141001
216	0xbf03c5af	-0.51473516
217	0xbf27d5d3	-0.65560645
218	0xbf0270c1	-0.509533
219	0x3efc52e2	0.49281985
220	0xbdf5fa47	-0.12010627
221	0x3e9f00a1	0.31055167
222	0xbed07556	-0.4071452
223	0x3f132b3b	0.5748784
224	0x3d1d1fd5	0.038360436
225	0xbf514833	-0.8175079
226	0xbe1af144	-0.15131098
227	0xbf22c270	-0.6357794
228	0xbdbd8888	-0.09254557
229	0xbf2e091b	-0.67982644
230	0x3f835caf	1.026266
231	0xbec1c29e	-0.37843794
232	0x3f0a6cbe	0.5407218
233	0x3e4fb3e7	0.20283471
234	0xbea202b5	-0.3164269
235	0x3cf71800	0.030162811
236	0xbe646bf0	-0.223068
237	0x3e7c4214	0.24634582
238	0x3f365328	0.71220636
239	0xbb3d4108	-0.0028877873
240	0xbf00484a	-0.50110304
241	0x3dd5dc10	0.10442364
242	0xbf08fea5	-0.53513557
243	0xbf25cc69	-0.6476503
244	0x3d7e8b05	0.062144298
245	0xbf1d12ee	-0.6135701
246	0xbf1993a6	-0.5999092
247	0x3ecd5168	0.4010117
248	0x3f758f2b	0.9592158
249	0x3c302c37	0.010752729
250	0xbed7ed7e	-0.4217338
251	0x3f1d1b51	0.61369807
252	0x3e636533	0.22206573
253	0xbef1f448	-0.47256684
254	0x3ed512f9	0.41616037
255	0xbed795cf	-0.42106482

fc_1.bias f4 [128]
0	0x3efcd978	0.49384665
1	0x3ea82646	0.328417
2	0x3f05d60b	0.5227973
3	0x3f29b793	0.6629574
4	0x3f27cac9	0.655438
5	0x3f3ab735	0.729358
6	0xbea0c21f	-0.31398103
7	0xbdc5bb38	-0.0965485
8	0x3f171620	0.59018135
9	0xbef1a096	-0.4719283
10	0xbe6135ee	-0.21993229
11	0xbebf95f7	-0.37419102
12	0xbf3162b1	-0.69291216
13	0xbf2d9022	-0.67798054
14	0x3de81bbb	0.11333414
15	0x3e88fc70	0.26755095
16	0x3ed54dcf	0.41660926
17	0x3f347936	0.70497453
18	0xbea17a4d	-0.3153862
19	0x3e6c404b	0.23071401
20	0x3e7d3b54	0.24729663
21	0x3df90165	0.12158469
22	0x3e8af0a1	0.2713671
23	0x3e6727ff	0.22573851
24	0xbeb66c87	-0.35629675
25	0x3df48ad3	0.11940541
26	0x3f15b590	0.5848017
27	0xbef76b99	-0.48324278
28	0xbcb79720	-0.02241093
29	0xbeb61de1	-0.3556967
30	0xbe4ec09f	-0.20190667
31	0x3e92edfb	0.2869719
32	0xbf01dbc0	-0.50725937
33	0x3d6e7d0a	0.058224715
34	0x3f1e71cf	0.6189241
35	0x3dd4aec1	0.10384894
36	0xbf0c9e04	-0.5492861
37	0x3dfecf0f	0.12441837
38	0x3f0cc54d	0.5498856
39	0xbc911e29	-0.017714577
40	0x3e375d81	0.17906763
41	0xbf14e42a	-0.5816065
42	0xbe86e274	-0.26344645
43	0x3d580e0d	0.052747775
44	0x3ebf284d	0.37335435
45	0xbec64080	-0.38721085
46	0xbf0b75f8	-0.5447688
47	0xbf1944f2	-0.5987083
48	0x3efd9db8	0.49534392
49	0xbeb28211	-0.34864858
50	0x3ea557e6	0.32293624
51	0xbe3493fa	-0.17634574
52	0xbe911dbf	-0.28343007
53	0xbeca4c83	-0.395115
54	0xbedb2558	-0.4280193
55	0xbe78ca3c	-0.24295896
56	0x3d247453	0.040149998
57	0xbe8925da	-0.2678669
58	0xbef3faac	-0.47652185
59	0xbe98a21a	-0.29811174
60	0xbe2a7b0c	-0.16648501
61	0xbe6d8230	-0.23194194
62	0xbe6771bd	-0.22601981
63	0x3f18bbf3	0.5966179
64	0xbe928820	-0.2861948
65	0xbeca6321	-0.39528754
66	0x3cb933a1	0.022607626
67	0x3e00f404	0.12593085
68	0x3efc07d2	0.49224716
69	0xbec11cda	-0.37717324
70	0x3f28e791	0.6597834
71	0x3f2403c9	0.64068276
72	0x3eebe471	0.46072724
73	0xbefac3ac	-0.4897741
74	0xbe0d78a8	-0.13815558
75	0x3e3aa006	0.18225107
76	0xbeee0566	-0.46488494
77	0x3f2859c7	0.6576199
78	0xbea1af17	-0.31578895
79	0x3efd1269	0.49428108
80	0xbf14c835	-0.5811799
81	0x3e34ed19	0.1766857
82	0xbe695368	-0.22785723
83	0x3ebf15d1	0.37321332
84	0xbeb2bf5d	-0.34911624
85	0x3f0d7054	0.55249524
86	0x3f013ce6	0.5048355
87	0x3e72fcc3	0.23729233
88	0xbf1f47bb	-0.62218827
89	0x3f13b852	0.57703125
90	0x3f2de8c5	0.67933303
91	0xbef8d23e	-0.48597902
92	0xbe86aaf5	-0.26302305
93	0xbec36623	-0.38163862
94	0xbdb35b80	-0.087576866
95	0xbf334d24	-0.7003958
96	0xbe29a0b4	-0.1656521
97	0xbe67b160	-0.22626257
98	0x3eb8d009	0.36096218
99	0x3ed5c4e7	0.41751787
100	0x3d70bff6	0.05877682
101	0xbf201736	-0.6253542
102	0xbef1b17a	-0.47205716
103	0x3ea2defb	0.31810746
104	0xbe980e8c	-0.29698598
105	0xbdc1e420	-0.094673395
106	0xbee60670	-0.44926786
107	0x3f0363c9	0.51324135
108	0xbe37b72c	-0.17940968
109	0xbf2129bc	-0.62954307
110	0x3e6e6b2b	0.23283069
111	0xbef9ec34	-0.4881302
112	0x3ed2281e	0.41046232
113	0xbe714c84	-0.23564345
114	0xbf068222	-0.52542317
115	0xbf0d6318	-0.5522933
116	0x3f3a2be7	0.7272324
117	0xbe82732f	-0.25478503
118	0xbea8b349	-0.32949284
119	0x3f380bc8	0.71892977
120	0xbecb71e8	-0.3973534
121	0xbe80ebfa	-0.25180036
122	0x3eb13414	0.34610045
123	0x3ec5f9aa	0.3866704
124	0x3ecd863d	0.40141478
125	0x3eeb11ed	0.45912114
126	0x3f2ce8b0	0.6754255
127	0x3e3e8ee3	0.18609194

fc.weight f4 [2, 128]
0	0x3daca278	0.08429426
1	0x3cb1aea0	0.021689713
2	0x3d8074e6	0.062722966
3	0x3dd067e6	0.10176067
4	0x3d6518b6	0.05593177
5	0x3d2069dc	0.039163455
6	0x3d95bc6d	0.0731133
7	0xbd642a7d	-0.055704582
8	0x3ce2cf57	0.027686758
9	0xbd09a516	-0.033604704
10	0x3b8ce580	0.0042998195
11	0x3d4df3ea	0.050281443
12	0xbd337435	-0.043811996
13	0xbdb0b3ec	-0.086280674
14	0x3c037cf3	0.008025396
15	0xbd90e2ff	-0.07074546
16	0x3d8de961	0.06929279
17	0x3afb8f82	0.0019192549
18	0x3a074300	0.0005159825
19	0xbcce6931	-0.025196644
20	0x3c78af06	0.015178448
21	0xbe241ba1	-0.16026165
22	0xbd4b7a39	-0.049677107
23	0x3dacd0d8	0.08438271
24	0x3ee63c7e	0.44968027
25	0xbe2058f7	-0.15658937
26	0x3cd945f7	0.02652262
27	0xbd740512	-0.059575148
28	0xbd567031	-0.052353088
29	0x3d8f1693	0.069867276
30	0x3f663d89	0.89937645
31	0x3d9b5095	0.07583729
32	0x3b9f87d0	0.004868485
33	0x3e2e4f14	0.17022353
34	0x3d212e5e	0.03935086
35	0x3e90623b	0.28199944
36	0xbd4d1234	-0.050066188
37	0x3e11161d	0.14168592
38	0x3ba1f93f	0.0049430425
39	0x3eb7a297	0.35866234
40	0xbd9030b6	-0.07040541
41	0xbd9ef006	-0.077606246
42	0xbd1913f8	-0.03737256
43	0x3e9789bd	0.29597273
44	0xbd2fee54	-0.042951897
45	0xbd926d6d	-0.071497776
46	0xbd4899c6	-0.048974775
47	0x3c44c440	0.01200968
48	0x3d932506	0.07184796
49	0xbd5b8571	-0.053594057
50	0xbddf8a07	-0.109149985
51	0xbc232b71	-0.009959088
52	0x3f449980	0.7679672
53	0x3d6dfbd6	0.058101498
54	0xbd12f9ed	-0.03588288
55	0xbd0d5ae0	-0.034510493
56	0x3deea221	0.116520174
57	0xbd1765fb	-0.03696249
58	0xbd5f03b9	-0.05444691
59	0xbcd40030	-0.025878996
60	0xbc5eaeb0	-0.013591453
61	0xbd1a092b	-0.0376064
62	0xbd6bd356	-0.057574593
63	0xbb9027f4	-0.004399294
64	0x3da9e029	0.08294708
65	0xbd8c680a	-0.068557814
66	0xbea4bb90	-0.3217435
67	0xbde78e6c	-0.11306462
68	0x3cefef38	0.029288873
69	0xbd706e88	-0.05869916
70	0x3dea8fd6	0.11453216
71	0xbd54b0a1	-0.05192626
72	0xbc051117	-0.00812175
73	0xbd353e0c	-0.044248626
74	0xbd934d0f	-0.07192432
75	0xbe7796d5	-0.24178632
76	0xbd9bbb84	-0.07604125
77	0x3dccdd16	0.10003106
78	0x3cf665e8	0.03007789
79	0xbda5152b	-0.08060678
80	0x3d6f738e	0.05845981
81	0xbe73acca	-0.23796383
82	0xbbdcb420	-0.0067353398
83	0x3e209bc3	0.15684418
84	0xbd92e1cc	-0.071719736
85	0x3beadecb	0.0071676723
86	0xbd64d816	-0.055870138
87	0xbd6e731c	-0.058215246
88	0x3c2d7180	0.010586143
89	0xbdff0820	-0.124527216
90	0x3dd2434d	0.10266743
91	0xbda5c0b7	-0.08093398
92	0xbc31dd50	-0.010855988
93	0x3cd917a8	0.026500538
94	0xbb036b60	-0.0020053014
95	0xbd1bb191	-0.038011137
96	0x3cd94530	0.026522249
97	0xbda1b2c9	-0.07895429
98	0xbd3a329b	-0.045458417
99	0x3cc70127	0.024292542
100	0xbec19789	-0.37810925
101	0x3c83ed94	0.016104497
102	0xbd6c2667	-0.05765381
103	0x3dc52577	0.096262865
104	0xbc961e00	-0.018324852
105	0xbd01fa78	-0.031733006
106	0xbd951cc8	-0.0728088
107	0x3a50af7a	0.00079607184
108	0x3d659932	0.0560543
109	0x3d99cbb1	0.07509554
110	0x3d1eb4d3	0.038746666
111	0xbd21f1cb	-0.039537232
112	0xbd6ef1ae	-0.058335952
113	0xbc5f2c48	-0.013621397
114	0x393a6e00	0.0001777932
115	0x3e7d94f8	0.24763858
116	0xbd910c4a	-0.07082422
117	0xbd137772	-0.036002584
118	0x3d9d7c2b	0.07689699
119	0xbd4c99bc	-0.0499513
120	0xbd734014	-0.05938728
121	0x3cfe119c	0.031014256
122	0xbe3bf200	-0.18354034
123	0xbda8083d	-0.08204696
124	0xbd803838	-0.06260723
125	0x3d03f646	0.032217287
126	0xbdeca196	-0.115542576
127	0xbd9695ef	-0.07352816
128	0xbca1fc34	-0.01977358
129	0xbc6daf4f	-0.014507129
130	0xbd08e840	-0.033424616
131	0x3da4daa0	0.08049512
132	0x3d5dc8ab	0.05414645
133	0xbba84d7f	-0.0051361914
134	0x3cb30184	0.021851309
135	0xbd6041de	-0.054750316
136	0x3e04cfa8	0.1296984
137	0xbd467b4a	-0.04845742
138	0x3d7b75aa	0.06139151
139	0xbc192388	-0.00934685
140	0x3d8e3d3d	0.06945274
141	0x3c43e2e8	0.011955954
142	0x3ca3361b	0.01992326
143	0x3e22749b	0.15864794
144	0x39292ff4	0.0001613496
145	0xbcf31e70	-0.0296776
146	0xbad12080	-0.001595512
147	0xbe10e1bd	-0.14148612
148	0xbd6ee011	-0.058319155
149	0xbe33712f	-0.17523645
150	0x3e432975	0.19058783
151	0x3e62bbe2	0.22141984
152	0xbf99ce77	-1.2016133
153	0x3cb5b63e	0.022181626
154	0x3dbb8377	0.09155934
155	0xbd82aff5	-0.063812174
156	0xbc75e6b8	-0.015008621
157	0xbd7066ba	-0.058691718
158	0x3eff6e13	0.49888667
159	0xbb53cea8	-0.0032319222
160	0xbd0e4742	-0.034735925
161	0xbd8962ae	-0.06708275
162	0xbe1c4beb	-0.15263335
163	0xbd54c324	-0.051943913
164	0x3c98f754	0.018672623
165	0x3d3cc064	0.046081915
166	0x3d7ece73	0.062208604
167	0xbeddf601	-0.4335175
168	0x3dc844d1	0.09778751
169	0xbd333c0f	-0.04375845
170	0x3d639fde	0.055572383
171	0x3b962023	0.0045814677
172	0x3e51f3e1	0.20503189
173	0xbd7f71f4	-0.062364534
174	0x3d1ed75a	0.038779594
175	0xbd8b3c08	-0.067985594
176	0xbd469133	-0.048478317
177	0x3d7c6312	0.06161792
178	0xbe0113b7	-0.12605177
179	0x3fa6a975	1.3020464
180	0x3f921d6d	1.141523
181	0xbd2fb7ca	-0.042899884
182	0x3cbaf468	0.02282162
183	0x3d8689ed	0.06569276
184	0xbdad5680	-0.08463764
185	0xbd829043	-0.06375172
186	0xbda38886	-0.07985024
187	0x3cba3b30	0.0227333
188	0x3cdf2870	0.027240962
189	0xbd2b3c80	-0.041805744
190	0xbcf047e9	-0.029331164
191	0x3dad6431	0.084663756
192	0xbceebefe	-0.029143807
193	0xbd719f48	-0.058989793
194	0xbeeb9b3b	-0.4601687
195	0x3cfec40c	0.031099342
196	0x3e0ffdf1	0.14061715
197	0x3c8f5c2c	0.017500006
198	0x3dee524b	0.1163679
199	0xbcf450c0	-0.02982366
200	0x3dd781e7	0.10522824
201	0x3d77d3de	0.060504787
202	0x3d8f0237	0.06982844
203	0xbe3375c7	-0.17525397
204	0xbd4bca3a	-0.049753405
205	0x3da95d40	0.08269739
206	0xbca063a4	-0.019578762
207	0x3cf3ca99	0.029759692
208	0xbd0832a9	-0.03325144
209	0xbde7d398	-0.11319655
210	0x3d01f5d6	0.031728588
211	0x3ce67962	0.028134052
212	0xbd76fa26	-0.060297154
213	0x3e062d9e	0.13103339
214	0x3c91d41e	0.01780134
215	0xbb829a91	-0.003985711
216	0x3d02d170	0.031938016
217	0xbd806b0d	-0.06270418
218	0x3d8b41a2	0.06799628
219	0xbd4033c8	-0.046924382
220	0x3d154fdc	0.036453113
221	0x3d4b57f2	0.049644418
222	0x3d313a52	0.04326851
223	0x3c5b2718	0.01337602
224	0xbd851eda	-0.06500025
225	0x3c7876de	0.015165059
226	0xbce33f8c	-0.027740262
227	0xbd46ad51	-0.04850513
228	0x3bac631b	0.0052608377
229	0xbda8b3fe	-0.08237456
230	0xbd04fae5	-0.032465834
231	0xbd687f86	-0.05676224
232	0x3d535012	0.051590033
233	0xbd43d8ad	-0.04781406
234	0x3d9b14fd	0.075723626
235	0x3c943fc5	0.018096814
236	0xbd36a238	-0.044588298
237	0x3d187ab6	0.0372264
238	0x3d8ff5d8	0.07029313
239	0xbc477a98	-0.012175225
240	0xbd3004e6	-0.04297342
241	0x3d356066	0.044281386
242	0x3d985e4b	0.0743986
243	0x3f99b741	1.200905
244	0xbbce0131	-0.006286763
245	0xbd983280	-0.07431507
246	0x3cc0aa50	0.023518711
247	0x3c057885	0.00814641
248	0xbcc6579c	-0.024211697
249	0x3cde235c	0.02711647
250	0xbd023d7b	-0.031796914
251	0x3cc29c8f	0.023756294
252	0xbdc961ac	-0.098330826
253	0x3df508c6	0.11964564
254	0xbd0a1319	-0.03370962
255	0xbe42492a	-0.18973222

fc.bias f4 [2]
0	0xbc7a8ff5	-0.015293111
1	0xbcf69c08	-0.030103698
