Saved_LSTM_Models/lstm2_3inputs_2outputs_89902f.pt (torch, 5135 bytes, 8 tensors)

lstm.weight_ih_l0 f4 [8, 3]
00000000: 7f60 56be 5500 98bc 57ee 203f ff50 21be
00000010: 45c7 0fbe 8782 f0bd 98eb e63d 0655 953e
00000020: dccf 2bbf 4ee2 ae3e 5b28 cbbe f63b ae3e
00000030: 0ff5 dfbe 6a12 df3e 6c4d db3e 4fe4 16bf
00000040: 3815 dd3e ffd1 10bf ef20 d43e 1ff8 b7be
00000050: 7e92 103c 89d3 00bf 9f6d b2be bfdb 6b3d
-0.20935248 -0.018554846 0.6286368 -0.15753554 -0.14040859 -0.11743646 0.11275405 0.2916643
-0.67114043 0.34157032 -0.39679226 0.34030122 -0.43741652 0.43568736 0.42832506 -0.5894212
0.4318025 -0.5657043 0.41431376 -0.3593149 0.008823989 -0.5032278 -0.3484926 0.057582613

lstm.weight_hh_l0 f4 [8, 2]
00000000: 76fa cc3e 024f dfbe eeb0 68be 8e78 bc3e
00000010: c338 2e3f aac1 a5be a207 ae3e daa5 c43e
00000020: ce79 f1be d034 fabd 5ac1 c3be d701 093f
00000030: 40b7 e8bd f86f ee3d 49e5 0abf e01f 09bf
0.40034837 -0.43614966 -0.22723743 0.36810726 0.6805536 -0.32374316 0.33990198 0.38407785
-0.47163242 -0.122171044 -0.38233453 0.5351843 -0.11363077 0.1164245 -0.5425611 -0.5356426

lstm.bias_ih_l0 f4 [8]
00000000: 06bf 243f 8f87 0dbe 2faf 2c3f cc5b 0cbf
00000010: fc21 07bf f435 ab3d 73d1 e0be 5c51 65be
0.6435398 -0.13821243 0.6745481 -0.5482757 -0.5278623 0.083599 -0.43909797 -0.22394317

lstm.bias_hh_l0 f4 [8]
00000000: 537d 4ebe 99e9 383f 9de9 0c3f 381f f7bd
00000010: 7b2e a8bd fa08 4f3f cc9d e6be fb4b 58be
-0.20164995 0.7223144 0.55043966 -0.120665014 -0.082119904 0.8087307 -0.45042264 -0.21122734

fc_1.weight f4 [128, 2]
00000000: 7918 d7be c456 66be 35ef 303f 8f47 913e
00000010: 75d8 143f 5609 30bf de24 8cbe a027 193f
00000020: 780d ebbe 39dd 8bbe 3752 593e b833 1dbe
00000030: 7b75 ddbe a5e9 843d 12a2 e3be 88ee 1ebe
00000040: 6abf 21bf 4bea 243f 9f13 2e3f 35de e3be
00000050: 205e 0bbd c644 96be 659f 213f 3807 09be
00000060: 45c1 dbbd db8c eb3e 8114 1e3e dead e6bd
00000070: 845f dbbe 79bf 07bf 0ede febe c4f3 33be
00000080: 2a69 243f 5e64 d9be 8867 3c3e 3775 2bbf
00000090: 5d10 4fbe a286 41be 1b70 d5be 6c17 19bf
000000a0: a468 2abe bc0a 093e d7f6 06bf d82f 40be
000000b0: 234d 8fbb 3be5 c8be 5037 633e 7097 643f
000000c0: 92fa e33e 2f59 b83e 30e3 d93e 9b79 74bf
000000d0: d9ea 2b3e a0ff 8abc eaa6 7bbd 2c82 72bf
000000e0: 3519 14bf 4485 dabe e4ff 40be 20f9 623e
000000f0: c61b 60be fd44 013e b468 1e3e 2857 09be
00000100: 7dd4 e9be aef4 f8be 8b87 953d 3645 eebe
00000110: 88f6 423e 8377 293f 49a4 2c3f c594 5cbe
00000120: 6899 dabe 425a aabe 51e4 12bf e0d8 5d3e
00000130: 5b3d 413d efea f2be 1f07 36bf ed98 c7be
00000140: aba2 0c3e 1c1a 46be 37b3 94bd 973e 8ebe
00000150: 4d9c fabc ea72 04bf c93a 12bf 30dd 4e3d
00000160: e25b 1cbf 56d1 82bd eca9 bfbd abe6 0c3f
00000170: e9af 2dbf aefd 0abf 1b4c 18bf 4115 16bf
00000180: 1697 eb3e c21c 16bf 8c62 38be c807 663f
00000190: d76b f53e 8766 a93e c3f6 7abe f818 083f
000001a0: 3fbe 80be 4440 fbbe b0f4 f13d 1896 253f
000001b0: 2a54 da3e d839 813d ebe9 6e3d 8c12 3dbe
000001c0: f18a 003f a0e1 5cbe e97a adbd 1f2a f5be
000001d0: 5d6b bdbb 6c04 853e 278e e53e 427e 0dbf
000001e0: 2812 acbe f61d 3f3e a94c 353f fb6b 79bd
000001f0: 78b7 17be 9aa6 393f 745c 8b3e 3a59 d73e
00000200: bf40 36bf a30e 5fbe 191b d4be 993c 35bf
00000210: 9c62 293e aeb4 503f 987c 843d e14e 8f3f
00000220: 9366 18bf e864 233f b41e e43e 455f 65bf
00000230: f374 dbbe 68d0 9f3d 7984 273f c068 df3d
00000240: e19b 063f 2423 593e c0db ac3c 9c06 073e
00000250: 3692 db3e 343d 08be 0438 603d 05cc e43e
00000260: 53eb 0f3f 6ce9 41be a0f8 f23e 4c22 94be
00000270: 5a59 edbe 6aec 9f3e 1003 0abd 3fa7 053f
00000280: 98e2 6abe a510 d23e 50d5 133d 4ba5 96be
00000290: 15c5 f93e 3d68 cc3c 5901 ca3e 8873 8cbe
000002a0: 7e60 f03e 2b7e 143f deca 583e d4a9 093e
000002b0: 9242 ac3e 0fce 303f 5b05 6cbe df6d 453f
000002c0: 495a 1ebe e47e 4c3e 6fef 1abe 549b 0f3e
000002d0: b780 66bd 5981 f03e 181e f43d 8af4 113f
000002e0: a025 ebbe 6802 823d 7222 f13e d058 babd
000002f0: 84ab 473e d9ea 1fbf 6fbf a3be 73cd 00bf
00000300: e748 9d3e 1e7a 4fbe e638 1fbf c6ee 133f
00000310: e1b6 95be 2e51 4c3f 0652 9d3e 2077 91bc
00000320: bfc7 b7be 6e4d ce3e 4a64 873e 0290 2dbd
00000330: d82c 7a3e 1df5 0ebf 68a3 843d 89bd 1abf
00000340: 7902 1f3f 10d7 963d 0e29 5ebd b0a2 89be
00000350: 7e60 be3e 1e44 31bf dc2b 393e c04f 06bc
00000360: abdc 5cbc f552 afbe 91d1 2c3f 9fbd bb3e
00000370: d509 37bf 56fb 223f de0f d73e 2043 723d
00000380: a72a 84be 04f8 1d3f 31a3 0dbf 3636 e63e
00000390: e022 96bd a640 983e e5b0 99be d137 f23e
000003a0: effc 22bf b639 d63e c064 f13c 9a28 f13e
000003b0: 0028 a93e 0bac 5f3f 2009 24bd 4035 91bc
000003c0: 961a 1abf 7767 c33e 4929 f13e 4239 dfbd
000003d0: 120a 29be 40c1 11bf c539 953e 015f f2bd
000003e0: ca95 953e 7622 c03e caae 2bbf ef37 023f
000003f0: 94c7 243e 4083 ec3c 3d13 933e 3d1e 7abe
-0.4201086 -0.22494036 0.69115 0.28374907 0.5814279 -0.68764246 -0.27371877 0.5982609
-0.45908713 -0.27317217 0.21222769 -0.1535176 -0.43253693 0.06489877 -0.44459587 -0.1552068
-0.631827 0.6442 0.6799869 -0.44505468 -0.03402531 -0.29349345 0.6313384 -0.1338166
-0.107302226 0.46005902 0.15437509 -0.11263631 -0.4284631 -0.5302654 -0.4977879 -0.17573458
0.6422297 -0.42459387 0.18398869 -0.6697573 -0.20221086 -0.18899015 -0.41687092 -0.59801364
-0.1664148 0.13383001 -0.527204 -0.18768251 -0.004373209 -0.3923739 0.22189069 0.89293575
0.44527107 0.36005542 0.42556143 -0.95498055 0.16788806 -0.016967595 -0.06143848 -0.94729877
-0.5785096 -0.426798 -0.18847615 0.22165346 -0.21885595 0.12623973 0.15469629 -0.13412154
-0.45669928 -0.48624176 0.073012434 -0.4653718 0.19039357 0.66197985 0.6743818 -0.21541126
-0.42695165 -0.33271986 -0.57379633 0.21664762 0.047177654 -0.47444865 -0.71104616 -0.3898386
0.13733928 -0.19345897 -0.07260745 -0.27782127 -0.030592108 -0.51737845 -0.5712095 0.05050391
-0.610777 -0.06387584 -0.09358582 0.5503947 -0.6784654 -0.54293334 -0.5949113 -0.5862618
0.46013707 -0.5863763 -0.18006343 0.89855623 0.47933838 0.33086035 -0.24508195 0.531631
-0.25145146 -0.49072468 0.118142486 0.6468215 0.42642337 0.06309861 0.05832855 -0.18464106
0.5021201 -0.21570444 -0.08470709 -0.47883698 -0.005780621 0.25979936 0.44835016 -0.5527078
-0.33607602 0.18663773 0.708201 -0.060893994 -0.14816082 0.7251984 0.27218974 0.42060262
-0.71192545 -0.21782927 -0.41426924 -0.7079559 0.16541523 0.81525695 0.06469077 1.1195947
-0.59531516 0.63825846 0.44554675 -0.89598495 -0.42862663 0.07803422 0.6543651 0.10908651
0.525816 0.21204811 0.021100879 0.13186115 0.42884988 -0.13304597 0.05474092 0.44686905
0.5621845 -0.189367 0.4745531 -0.28932416 -0.46357232 0.31235057 -0.033694327 0.5220832
-0.22938001 0.41028324 0.036092103 -0.29422984 0.48783174 0.024952048 0.39454153 -0.27431893
0.46948618 0.5800502 0.21171138 0.1344369 0.3364454 0.6906442 -0.23048918 0.77120775
-0.15464129 0.1997028 -0.15130399 0.14024097 -0.056275096 0.46973684 0.119198024 0.5701376
-0.45927143 0.06348115 0.47096592 -0.09098971 0.19499022 -0.62467724 -0.3198199 -0.5031349
0.30719683 -0.20261428 -0.62196195 0.57786214 -0.29241088 0.7981137 0.3072664 -0.017756999
-0.35894582 0.4029345 0.26443702 -0.042373665 0.24431169 -0.55842763 0.0647648 -0.6044546
0.6211315 0.07365239 -0.05423837 -0.26881933 0.37182993 -0.69244564 0.18083137 -0.008197725
-0.013480346 -0.3424298 0.6750727 0.36668107 -0.7149938 0.6366476 0.42004293 0.059146047
-0.2581379 0.61706567 -0.55327135 0.44963235 -0.07330871 0.29736823 -0.30017772 0.4730821
-0.63667196 0.41840905 0.029466987 0.4710129 0.3303833 0.8737189 -0.040047765 -0.017725587
-0.60196817 0.38164875 0.4710181 -0.10899593 -0.16507748 -0.569355 0.29145637 -0.11834527
0.29215842 0.37526292 -0.6706358 0.508666 0.16091758 0.028871179 0.28725615 -0.24425597

fc_1.bias f4 [128]
00000000: 07fc da3e 017b 033f 24f5 06bf af48 1f3f
00000010: e0c2 53bd a694 283e 7117 303f e19f fe3e
00000020: 69c0 c4bd 282c ad3e 800c e0be 0886 e9be
00000030: 631b df3e b27f f03e 75f5 8c3e cff0 b2be
00000040: b996 f43e daf0 8ebe f7d6 1e3e 14e3 d93e
00000050: 24b7 21be 0863 1ebe db83 913e a80b af38
00000060: a6b0 84be f0fc be3e 3a67 0c3f 3910 853e
00000070: 9337 0d3f c2d1 a4be e187 c6bd 8094 afbc
00000080: 1004 a5be fd82 7b3e 7c48 9737 74a1 a73e
00000090: b17d c83e fe3e 803e bdb9 323e 3736 973e
000000a0: 00fb 993e bec5 673d c7dd 933e a06d 6bbe
000000b0: 5541 e13e 9630 193e 7108 0e3e 2038 c7bc
000000c0: fee0 823e 5af2 163f 11f9 ab3e 9d87 d53e
000000d0: d158 e43e f852 ddbe 192c c5be 1210 623d
000000e0: bc05 0fbf 9714 d33d b66c de3d f0d1 ce3e
000000f0: 9054 b23d f983 ae3e 636e 37be d625 c5be
00000100: 2fad 513d b0e6 0e3f 2b8b 9939 ed8f c2be
00000110: 45f4 363f 0332 123f 2fe3 0abf e83b 84be
00000120: 3126 9abe f028 1ebf 801e 18bc 2b9c 6f3d
00000130: 0321 dfbe efdb 2d3f 97a3 2fbf b7d2 8c38
00000140: 31a3 323c 6000 41be d402 193e c15a ddbb
00000150: 7e00 16bf 0c92 043f 3eae e53c 5c5e 013f
00000160: 7c3e e93d cccb ae3e 8522 023e e3da cd3e
00000170: 9042 b8be 3494 94be 36f9 633e 142e 27bf
00000180: cc7d 943e a560 ef3e 9206 84be c531 d3be
00000190: a23f 24bf 3fdb e33e 4ea4 0b3e 34f0 30bf
000001a0: ac23 8ebe 67b6 9e3e 5043 b5bd 14f7 76be
000001b0: 5389 9d3d eebb d63e d7fe 0f3f 9db6 1bbf
000001c0: 2e34 033f a422 0bbf 5467 80be 03fb e23c
000001d0: 2acc abbe bd0f 10bf 0356 aa3e a127 d3be
000001e0: 3dfb 033f efff fd3d 7fb5 1b3e a3ee 043f
000001f0: d7f9 2fbf e39a 6e3d 70bc eabd 2966 343f
0.42770407 0.51359564 -0.52717805 0.6222028 -0.05169952 0.16462955 0.6878577 0.49731353
-0.09607012 0.3382275 -0.43759537 -0.4561007 0.43575582 0.46972424 0.2753102 -0.34949347
0.47771242 -0.2791813 0.1551169 0.4255606 -0.15792519 -0.15467465 0.2842091 8.3468214e-05
-0.25916022 0.3730235 0.5484501 0.2598894 0.55162925 -0.32191283 -0.096938856 -0.021433115
-0.32229662 0.24561687 1.8034356e-05 0.32740366 0.39158395 0.2504806 0.17453666 0.2953355
0.3007431 0.056585066 0.2888014 -0.22991037 0.43995157 0.1495994 0.13870408 -0.024318755
0.2556228 0.5896355 0.3358846 0.41705027 0.44599012 -0.43227363 -0.38510206 0.055191107
-0.55868125 0.103066616 0.10860579 0.40394545 0.08707535 0.34085062 -0.17913203 -0.3850543
0.05119055 0.5582075 0.00029286122 -0.38000432 0.71466476 0.5710756 -0.54252905 -0.25826955
-0.30107263 -0.61781216 -0.0092846155 0.058498543 -0.43579873 0.6791372 -0.68608993 6.714969e-05
0.010903166 -0.188478 0.14942485 -0.0067552035 -0.585945 0.5178535 0.028037187 0.50534606
0.11388871 0.3413986 0.1270848 0.4020606 -0.35988283 -0.2901932 0.22263035 -0.65304685
0.29002225 0.4675342 -0.25786263 -0.4124891 -0.64159596 0.4450321 0.13636896 -0.6911652
-0.2776159 0.30998537 -0.088507295 -0.2411769 0.07692208 0.41940254 0.5624823 -0.6082552
0.51251495 -0.5434973 -0.25078833 0.027707582 -0.33554202 -0.56274015 0.33268747 -0.41241172
0.51555234 0.12402331 0.15205954 0.5192663 -0.687406 0.05825318 -0.11461723 0.70468384

fc.weight f4 [2, 128]
00000000: d6d6 b33d 6a75 273c 7164 a53d de54 d2bc
00000010: 3bff 16bd ee13 45bd 89e1 b23c 810d 283d
00000020: 8721 a8be b254 7a3d d4ae d43c 5c2d 0cbd
00000030: ea7e 8a3d a83c 6a3c c259 a13d 1121 1ebd
00000040: 3caf a63d 9d66 843d 9585 b1bc b066 a63c
00000050: 0094 45b9 5152 9fbd db37 d43d 43a5 49be
00000060: b292 44bd cd14 0f3d 7e4a 15bc 1ea7 113e
00000070: 615d 373d aa19 a1bd e5b1 d6bc c81b b5bc
00000080: 26f1 783d 2715 f33c f3ca 9ebe b818 473c
00000090: 61f1 8a3d 1038 76bd 3587 af3c 52ee 5cbc
000000a0: abfa 89bc 01c0 08bc 2631 7c3d ffca a3bd
000000b0: 3d92 0a3d f427 713d f646 d73d dc89 21bd
000000c0: d554 33bc ddf7 41bd 1071 04bc 5c2e e33c
000000d0: 18c6 b33d d03b b0bd 304c 4a3c 4937 ab3d
000000e0: 672a 20bd 8b41 763e b6ae 49bc ee72 a73d
000000f0: a05c 823d d15f 74bc 42f0 153f d7c9 a13d
00000100: c2d6 443d 3f7c ac3d 86c0 33be b909 113f
00000110: 8464 593d b59e 653d 4767 90bd 98a8 7b3c
00000120: 22f6 773d 1625 173d d3ca 27bd 4d32 b3bd
00000130: cd50 2ebd 0ccd 743d 5444 c2bc 4b00 46be
00000140: a221 26be 048c acbd 53f9 12bd 8069 b8bb
00000150: 00ba ecba 6b1b d03d 7d77 b7bd 7e71 00bd
00000160: 60bb f7bc 50b2 b2bc 27d0 c53b c455 ac3c
00000170: 6a54 1fbd b461 a4bd 70cc a93d aa97 ddbc
00000180: c36f 6fbb 050b 92bd 97fb fe3e 9ba6 8dbd
00000190: 4394 65bd dec8 d93c eb74 4a3e 5caf a43c
000001a0: afb5 a33d cfc5 123b ffce 893d cb74 b0bd
000001b0: cf10 e93c 98c3 84bc b43a 6ebd a0b8 ec3b
000001c0: 386c 6739 84ea d3bc 90f0 52bc 300b f2bd
000001d0: 476b a8bd a24d 4fbd 0488 d5bb afb9 a63d
000001e0: e1e7 b93d a45c ab3c ff77 4f3e a2b6 9cbc
000001f0: d4e0 91bd e5ac 43bd f963 913d e545 1c3d
00000200: 0a0c 4db9 fae4 65bd ee98 533d e461 3d3d
00000210: d9b1 903d eeee 73bd 131d a6bc d7eb 9d3d
00000220: c934 383e 8256 5abc b900 a23d 835c 65bd
00000230: f86d cc3b c25b aa3d 95ee 82bd 11b1 88bd
00000240: 7959 103d 80dc 14bc 4cdc 3e3d 5a01 31bd
00000250: 72ed 4abd c373 923d e895 5abd e6b8 893e
00000260: 3ec1 613d f86a 6cbc 0283 c43d 8834 9ebd
00000270: 6f7b 74bd 6af9 573d f065 573d d861 773c
00000280: dc47 e83c c9fa 743d 3d91 1d3e 4cb8 9dbd
00000290: b43f 163d 85d7 8bbc bd21 69bd 1974 96bd
000002a0: 8574 d0bc 9425 cfbd c4ee 533c bb91 9b3d
000002b0: f73c 6cbd c955 d93d aa4c 9abd b47b 9cbd
000002c0: 8ca9 37bd 58a5 643d 6ddd 75bd 3cb9 ac3d
000002d0: 3cfa b23d 8d7d 213d b8bf 64bc 899a 86bb
000002e0: c0c8 0e3c 3f81 b1bd f6f3 063b 29a4 4abd
000002f0: e746 d53d 6dca 6a3d 5dec 13bf cbc8 b33d
00000300: c9a7 22bd d4e5 643d 333f 883e 91cf 13bf
00000310: e9bb a93d 69d2 f3bc 7a75 1a3d 5dc3 3dbd
00000320: a048 3e3c 0966 54bd b65a 193d 2c8c e83d
00000330: a666 693d 618c a13c 3022 a9bc c079 973e
00000340: 42e5 643e 44ef 6ebd e8cc 8b3d 678a 0abc
00000350: 8a2c 683d 1551 f73b a642 5f3e 2472 9d3d
00000360: 8935 11bd 5261 9d3d f713 963c 9e19 a83d
00000370: 9617 473d 75bb ac3d c4ed 80bd 4057 d1ba
00000380: c568 503d 0226 2abd 9365 ffbe cfc6 b43d
00000390: af24 823d 2462 0abc 1498 0bbe 8078 363b
000003a0: ae8e 023d 418f 81b9 0adc 07bd 509a 12bc
000003b0: 7d68 b6bd 8402 51bd c676 063c 3513 a3bd
000003c0: d448 f43c e599 44bd cc9d 8cbd bcfe 183e
000003d0: 98c9 8e3c 905b 1bbd 96cc 843d 51ec 31bd
000003e0: fd3a 723a d1c4 303d c967 27be 05e9 493d
000003f0: 3bc0 843d a300 b63d adbb b1bd 4f78 0dbc
0.08781211 0.010220865 0.08075798 -0.025675233 -0.0368645 -0.04811471 0.02183606 0.041028503
-0.3283808 0.061115928 0.02596227 -0.034222946 0.06762488 0.014296688 0.07878448 -0.038605753
0.08138892 0.064648844 -0.021670142 0.020312637 -0.00018842518 -0.077793725 0.10362216 -0.19691949
-0.047991462 0.034931947 -0.009111999 0.14223906 0.044766787 -0.07866223 -0.026207874 -0.022107974
0.060776852 0.029673172 -0.31014213 0.0121518895 0.067843206 -0.06011206 0.021426776 -0.013484554
-0.01684316 -0.008346559 0.06157031 -0.07997703 0.03383087 0.058875993 0.105115816 -0.039438114
-0.0109455185 -0.04735552 -0.008083597 0.027732067 0.08778018 -0.08605158 0.012347266 0.08360154
-0.039102938 0.2404844 -0.012309721 0.08176218 0.06365323 -0.014915423 0.5856973 0.07899826
0.04805637 0.084221356 -0.1755391 0.5665546 0.053074375 0.056059558 -0.070509486 0.01536002
0.060537465 0.036900602 -0.040964913 -0.087498285 -0.042557526 0.05976586 -0.023714222 -0.1933605
-0.16223767 -0.08425143 -0.035882305 -0.005627811 -0.0018060803 0.101614796 -0.089583375 -0.031358235
-0.030240715 -0.021813542 0.0060367766 0.02103699 -0.038898863 -0.08026448 0.082909465 -0.027049858
-0.003653512 -0.07131008 0.49801323 -0.06916543 -0.056049597 0.026585039 0.19771163 0.02010315
0.07993638 0.0022395735 0.067289345 -0.086160265 0.028450398 -0.016206548 -0.058161452 0.0072241575
0.00022070191 -0.025868662 -0.012874737 -0.1181854 -0.082235865 -0.050611146 -0.0065164585 0.08140885
0.090774305 0.020918198 0.20260619 -0.019130055 -0.07122961 -0.047772307 0.070991464 0.038152594
-0.00019554808 -0.056126572 0.051659517 0.046235934 0.07065172 -0.059554033 -0.020277536 0.077109985
0.17988886 -0.013326289 0.07910294 -0.05599643 0.0062386952 0.08318283 -0.06393162 -0.06674398
0.035241578 -0.009085774 0.04659681 -0.04321418 -0.04954285 0.07150986 -0.053365618 0.2689888
0.05511593 -0.0144298 0.095953 -0.07724863 -0.059688028 0.052728094 0.05258745 0.015099011
0.028354578 0.05980948 0.15387435 -0.077011675 0.036681846 -0.017070541 -0.05691694 -0.073463626
-0.025446186 -0.10114589 0.012935344 0.07596155 -0.057675328 0.10612065 -0.07534154 -0.07640782
-0.044839427 0.055821747 -0.06002562 0.08433768 0.08739135 0.039426375 -0.013961725 -0.0041077775
0.008714855 -0.0866723 0.002059219 -0.04947296 0.10413914 0.057321955 -0.57782537 0.087785326
-0.039710794 0.055883244 0.26610717 -0.57738596 0.08287794 -0.029763417 0.03770969 -0.04632889
0.011613995 -0.05185512 0.037440024 0.11354861 0.05698266 0.019720258 -0.020646185 0.29585075
0.2235308 -0.05833365 0.06826192 -0.008455849 0.0566831 0.0075475075 0.21802768 0.07687786
-0.035451446 0.07684578 0.018320067 0.08208011 0.048606478 0.08434192 -0.0629535 -0.0015971437
0.050881166 -0.041540153 -0.49882182 0.08826982 0.06354653 -0.00844625 -0.13632232 0.002784282
0.03187435 -0.0002471153 -0.03316883 -0.008947924 -0.08906648 -0.05102779 0.008207029 -0.07962648
0.029819883 -0.047998328 -0.06866035 0.14940923 0.017430112 -0.037929118 0.06484334 -0.04343826
0.00092403573 0.04315645 -0.16348185 0.04929449 0.064819776 0.0888684 -0.086783744 -0.008634641

fc.bias f4 [2]
00000000: 1e35 003d fd83 a73d
0.031300656 0.08179472
