Saved_LSTM_Models/lstm1_3inputs_2outputs.pt (torch, 5135 bytes, 8 tensors)

lstm.weight_ih_l0 f4 [8, 3]
000000 b2 03 15 bf d2 9d e0 be 2c da e3 bc 4f 08 01 3f
       -0.58208764 -0.43870407 -0.027813993 0.504033
000010 d7 cf 11 3f 86 bd bc be 6a 3b a0 3e bc 21 82 be
       0.56957763 -0.36863345 0.3129533 -0.25416362
000020 58 5d 13 be 6e 8f a3 3e 88 c6 ff bd 1a 67 a2 3e
       -0.14391077 0.31945366 -0.12489039 0.31719285
000030 a0 87 b4 be f5 4d c2 bd 00 a8 54 3e 18 68 1a 3f
       -0.35259724 -0.094875254 0.20767212 0.60315084
000040 82 7c fb 3c 24 29 6e 3e 0a ce e3 be 9b 9c d5 3d
       0.030699018 0.23257881 -0.44493133 0.10430261
000050 fc c3 6f be 55 3c 39 3d 74 39 cf 3e 43 a8 a3 be
       -0.23414606 0.045223553 0.4047352 -0.3196431

lstm.weight_hh_l0 f4 [8, 2]
000000 7c 18 09 bf 4b 59 b3 be 2a 25 a2 3e 3c 60 56 be
       -0.53552985 -0.35029063 0.3166898 -0.20935148
000010 45 c3 28 bf b2 19 01 bf 1a 74 07 bf 80 6f 18 3c
       -0.6592296 -0.5042983 -0.5291153 0.009303927
000020 22 7d dd 3e f6 94 d8 3e 15 33 9d be f3 58 ff be
       0.4325953 0.42301148 -0.30703035 -0.4987255
000030 86 3b 9b 3e 30 38 26 bf 40 07 08 3d c4 9c 21 bf
       0.3031885 -0.64929485 0.03321004 -0.6312983

lstm.bias_ih_l0 f4 [8]
000000 a0 3e bc 3d 72 10 b6 3e 86 6a 1a bf fb 8a 14 bf
       0.09191632 0.35559422 -0.6031879 -0.5802457
000010 4d 4f 3c 3f 7d ee 8d be 42 97 2c 3d df 0f cf 3e
       0.73558503 -0.27721015 0.04213644 0.40441796

lstm.bias_hh_l0 f4 [8]
000000 8c 2d 53 3f 20 a6 00 3f f8 fd ac bd 29 48 91 be
       0.82491374 0.50253487 -0.08446878 -0.28375366
000010 63 28 a4 3e 7a be 50 3e 12 5a 6f 3f 72 55 b5 be
       0.32062063 0.20385161 0.9349681 -0.35416752

fc_1.weight f4 [128, 2]
000000 82 82 af 3e b8 48 c3 3d fc e9 18 3e be c3 6f be
       0.34279257 0.095353544 0.14933008 -0.23414513
000010 ee 48 b3 be 00 f5 d8 bc 52 bb 19 bf d8 b7 aa bc
       -0.35016578 -0.026484013 -0.60051453 -0.020839617
000020 73 7b c4 3e 07 76 0d 3f a9 71 0f be 8a 5f f2 3e
       0.38375434 0.5525822 -0.14008202 0.47338516
000030 3a ef de 3e 97 3e 58 be 88 fe 18 bf 01 87 c4 3e
       0.4354189 -0.21117626 -0.59763384 0.3838425
000040 81 8e c8 3e 87 01 b5 3e f2 14 21 3f c4 35 0e bf
       0.39171222 0.35352728 0.62922585 -0.5555079
000050 0b ea 41 3f 95 72 9e be c0 20 6f 3e 90 ec 98 bd
       0.75747746 -0.30946794 0.23352337 -0.07466996
000060 19 e9 e2 3e dd 4d 25 bf 9d f6 a7 be 4a 0f 15 bf
       0.44318464 -0.64571935 -0.32805339 -0.58226454
000070 3e 28 25 3e 4f d9 a9 3e a8 4e 1c bf 6f 3e 2f 3f
       0.16128632 0.33173606 -0.6105752 0.6845464
000080 b6 74 fd be 40 71 e9 3c c0 39 8f 3d 9c e2 d8 3e
       -0.49503106 0.028496385 0.06993437 0.4236039
000090 ff 5e 10 bf b2 d2 11 bf 51 88 29 3f b3 fc 2d bf
       -0.5639495 -0.5696212 0.6622363 -0.67963713
0000a0 04 df 11 bf fd 67 30 bf 8e a2 ec 3e 48 56 32 be
       -0.5698092 -0.68908674 0.4621777 -0.17415726
0000b0 bd 25 34 3d d9 88 37 3e 60 cd ae 3d 4f 06 2c 3f
       0.043981303 0.17923297 0.08535266 0.67197126
0000c0 53 39 d8 be 80 ed 5b 3d 97 75 29 bf ed bf 23 bf
       -0.42231235 0.053693295 -0.6619505 -0.6396473
0000d0 82 3c 4d 3f 8e 73 ed be 40 88 13 bd 80 9e 74 bd
       0.8017045 -0.46377224 -0.03601861 -0.05972147
0000e0 3d 03 3a be d6 8d 46 3e 32 6e 07 be 50 d6 2b 3f
       -0.18165298 0.19390044 -0.1322563 0.6712389
0000f0 60 aa a9 3d df c0 02 bf 88 c5 db bd 58 4d 03 3e
       0.082844496 -0.5107555 -0.107310355 0.12822473
000100 1f e6 25 bf c0 70 8c be 9e 63 29 bf c0 99 20 bc
       -0.6480426 -0.2742977 -0.6616763 -0.009802282
000110 53 64 24 bf a1 51 2d be 8e b7 90 3e ac 6d 22 3f
       -0.6421558 -0.1692567 0.2826504 0.63448596
000120 33 fb 7b bc 9d d7 88 be cf 90 28 bf 3c fe fb be
       -0.015379715 -0.26727 -0.6584596 -0.49217403
000130 91 07 cc be ce 8d aa 3e aa 49 46 3f 3f 25 0a bf
       -0.39849523 0.33311313 0.7745615 -0.53963083
000140 a9 22 f8 be 46 fc 1a 3e 7d a1 ae 3e 1f 01 9e be
       -0.48463944 0.15135297 0.3410758 -0.3086023
000150 3e 21 a9 be f6 20 a8 3e cd 71 aa 3c 5e 8b 86 bf
       -0.33033174 0.32837647 0.020806218 -1.0511281
000160 aa fc 2f bf c8 b2 c3 3e 6d 2b 04 3f 8c ed 08 3f
       -0.6874491 0.38222337 0.5162876 0.5348747
000170 81 a1 f8 3e ee 86 36 bf a9 57 19 3f 26 c0 72 be
       0.48560718 -0.71299636 0.59899384 -0.23706111
000180 89 6f 2e 3f b9 22 19 3f 0b 75 16 bf 25 cd 86 bc
       0.6813894 0.5981861 -0.58772343 -0.016455242
000190 9f 4a ac 3e 0b 0c a7 3e 59 b4 21 3e c0 4d 9e be
       0.3365068 0.32626376 0.15791453 -0.30918694
0001a0 f1 89 8f 3f b1 3e 58 bd 70 2f 41 be c9 2a 5d 3d
       1.1213971 -0.052794162 -0.18865752 0.05399588
0001b0 21 09 75 3e f5 23 87 be 27 32 6e 3f 64 01 02 3f
       0.23929264 -0.2639462 0.93045276 0.5078337
0001c0 f5 e8 1b bf 5d 5f 82 3d 97 da c8 3e 75 b0 98 be
       -0.6090234 0.06365845 0.3922927 -0.29822126
0001d0 a8 99 38 bf 3f f7 d0 3d 34 b7 09 bf da c9 ef be
       -0.7210946 0.102034084 -0.5379517 -0.46833688
0001e0 18 a1 8a be ab a5 28 bf d0 1d 38 3e cb 4e d1 be
       -0.2707603 -0.6587779 0.17980123 -0.40880427
0001f0 69 5b 31 bf 18 aa 1a 3f 93 4c 0b 3f 3c 9c 1a bf
       -0.69280106 0.6041579 0.5441372 -0.60394645
000200 b0 ed b0 3d 3e 2e ca 3e 59 f8 36 3f 6c 1f 07 bd
       0.08639085 0.39488405 0.714727 -0.03298895
000210 ad ee 5a 3f 4e 88 ea be 6d c1 9f bd 50 1a 6f bd
       0.8552044 -0.45807117 -0.07800565 -0.058374703
000220 65 f9 a4 3e 77 57 c7 be f6 77 10 bf 29 72 28 3f
       0.32221523 -0.38933918 -0.56433046 0.65799195
000230 40 e0 87 be 3b d7 cb be 01 6b ac 3e 8c ec ee 3e
       -0.26538277 -0.39812645 0.33675388 0.46664846
000240 5f d2 e2 be dc e1 33 be cf bf 84 bf 6a 79 30 3f
       -0.44301125 -0.17566627 -1.0371035 0.68935263
000250 4e 4b e7 3e d8 3c df 3d ff cf cb bd 05 de 50 be
       0.4517464 0.10900277 -0.099517815 -0.20397194
000260 e3 9e 2c bf a8 f4 9a be 5e 5d 3f 3f 9f 4d d8 be
       -0.6742994 -0.30264783 0.7475184 -0.4224672
000270 9a 47 9d be 5d b5 94 3d 68 82 fb bd 10 4c 7d 3d
       -0.3071869 0.07261155 -0.122807324 0.061840117
000280 00 e5 63 3d f8 9d ef 3e 44 e3 2f bf a3 a0 40 3e
       0.055638313 0.46800208 -0.68706155 0.18811278
000290 26 fc e7 3e a0 d7 81 3c 2e c3 af 3e f6 7d 39 3f
       0.45309561 0.015849888 0.34328598 0.72457826
0002a0 73 4a f8 3e 5e 8a 79 3d 24 2c 0e 3f fe bf 0e 3f
       0.484943 0.060922973 0.55536103 0.55761707
0002b0 e9 5c 57 bf 82 15 f6 3e 02 f1 04 be 54 fc 19 3f
       -0.84126145 0.48063284 -0.12982562 0.6015065
0002c0 2f 53 2d 3f 33 61 86 3c a0 0e 76 3e 96 b6 a1 3e
       0.67705053 0.01640377 0.24029016 0.31584615
0002d0 58 5b 1a 3f b6 2a a6 3e ee a8 1d 3e ec 49 95 bd
       0.6029563 0.3245446 0.15396473 -0.0728949
0002e0 ad 73 31 be 52 61 fc 3e 35 7b 9c be 0c e0 07 be
       -0.17329283 0.49293 -0.3056275 -0.13269061
0002f0 38 59 3a be 94 e5 86 3e 38 b5 28 bf 18 3f aa bd
       -0.18198097 0.2634703 -0.6590152 -0.083128154
000300 9c ba 28 3e 90 b9 50 be 20 c7 10 bf cc 46 3f 3c
       0.16477436 -0.20383286 -0.5655384 0.011674594
000310 2e d0 fd 3e e0 06 5f 3e 2a df 92 be 96 d6 0b bf
       0.4957289 0.21779966 -0.28685886 -0.5462431
000320 d8 da 37 be 60 8b d6 bd 83 cf 0d bf 26 24 f3 be
       -0.17954576 -0.104758024 -0.5539476 -0.47488517
000330 58 f2 4e be 30 64 18 3e 6f 54 d4 be 7e d2 06 3d
       -0.20209634 0.14881968 -0.41470668 0.032915585
000340 35 f9 88 be e0 53 23 3f 2c 92 91 be 38 0b 2e be
       -0.2675263 0.6379986 -0.28431833 -0.16996467
000350 ba d5 c7 bd b8 57 86 3d bb 09 15 3f 69 12 86 be
       -0.09757562 0.065597 0.5821797 -0.2618592
000360 4d 60 32 3f 78 e0 b5 3d e5 94 2b 3e f5 c2 06 bf
       0.69678193 0.08880705 0.16756018 -0.5264123
000370 2f a1 1b 3f aa 19 f3 be 0d 36 68 3f 90 15 83 bf
       0.6079282 -0.47480518 0.90707475 -1.0240955
000380 6f 6d cf 3e 4b b6 1a 3f 2b f7 35 3f 96 57 3c be
       0.4051318 0.60434407 0.71080273 -0.18392786
000390 b0 9f 32 bf 68 8b 22 be 6a c7 2e bf 79 61 1d bf
       -0.69774914 -0.15873492 -0.6827303 -0.61476856
0003a0 83 d5 92 bd 9a 83 b7 3e f1 47 07 bd 39 7d 03 bf
       -0.071696304 0.35842592 -0.033027593 -0.5136295
0003b0 b8 6a bc bd e6 37 b5 3e 7d eb 8d 3e 6e 32 26 3f
       -0.092000425 0.3539421 0.27718726 0.649207
0003c0 c0 a0 b7 bc e8 a6 20 bf bc 11 54 3e db 61 2c 3f
       -0.022415519 -0.6275468 0.2070989 0.67336816
0003d0 1d 39 31 be 82 26 33 3f b9 29 fd bd be 82 09 bd
       -0.17306943 0.69980633 -0.123614736 -0.03357195
0003e0 80 87 c7 bd da 93 23 bf 90 f8 02 bd 7a bd ff 3e
       -0.097426414 -0.6389748 -0.03197533 0.49949247
0003f0 44 84 1b bf 73 8c 18 bf a4 73 14 bd 5c c8 b7 3e
       -0.60748696 -0.5958931 -0.036243096 0.3589505

fc_1.bias f4 [128]
000000 a8 f1 5e be 19 a1 2e bf b7 79 0e bf 53 ed 87 3e
       -0.21771872 -0.68214566 -0.5565447 0.26548252
000010 81 bd a2 3d 5e 6e fe 3d ea 5c 49 bc 92 79 b9 bc
       0.07946301 0.124233946 -0.012290219 -0.022640977
000020 57 1c e5 3d 52 94 5b 3d c9 27 f3 3e 07 ea d5 be
       0.11187046 0.053608246 0.4749129 -0.4178011
000030 1e 6c 36 3f d3 cf 87 3e a3 ee 95 3e fa f8 c0 3e
       0.71258724 0.26525745 0.29283628 0.37689954
000040 61 8d 27 bf d3 b3 05 be 68 f4 e2 bd 03 aa 19 3f
       -0.654501 -0.13056879 -0.11081773 0.6002504
000050 00 99 6e bb 72 50 f8 be 48 27 08 3f 79 97 92 be
       -0.0036407113 -0.48498875 0.5318494 -0.2863119
000060 be e5 04 bf bc b6 25 bf d3 f7 d4 ba 24 c5 47 be
       -0.5191306 -0.64731956 -0.0016248174 -0.19508797
000070 78 61 03 3f 2b f3 70 3d 58 fa 12 bf 69 35 c1 be
       0.513206 0.058825653 -0.57413244 -0.3773606
000080 c7 e2 2d 3f 4e 3e 72 be 31 ba 5d 3e 1b 5d c0 3e
       0.6792416 -0.2365658 0.21653058 0.37571034
000090 bd a5 f0 3c 09 19 b3 be 05 22 48 3e fe 6a bd 3e
       0.029375905 -0.34980038 0.19544227 0.3699569
0000a0 81 d8 c1 3e d4 56 b9 3d 12 0f a4 be 03 b3 95 3e
       0.37860492 0.09049764 -0.32042748 0.29238138
0000b0 b0 b7 16 3f 01 64 02 3f 83 2c 77 3e dd 65 29 bf
       0.58874035 0.50933844 0.24138074 -0.66171056
0000c0 83 b9 c8 3e 8e da 2d 3f da b6 a7 3d 22 84 bd 3e
       0.39204034 0.67911613 0.08189173 0.37014872
0000d0 04 ae 3c be 2b 01 1c 3f cc 6c 98 3e 53 8b 97 bd
       -0.18425757 0.6093928 0.29770505 -0.07399621
0000e0 98 64 1b 3d 33 7c 65 3e c6 81 29 3f f0 d4 2a bd
       0.03793773 0.2241066 0.66213644 -0.04170698
0000f0 2e 02 1a bf e7 a9 ec be 00 78 9c 3e 3c 1e 8d 3e
       -0.60159576 -0.46223375 0.30560303 0.2756213
000100 26 1d e7 be 94 30 75 3e 4b 26 9c 3d 46 3b 3b 3f
       -0.45139426 0.23944312 0.07624491 0.7313732
000110 75 56 69 3d 28 47 d4 be 66 36 f1 be 17 22 be 3e
       0.056967217 -0.41460538 -0.47111815 0.37135383
000120 50 0c 4e bd 72 d6 07 3e 72 a8 d7 be ec 04 a3 3e
       -0.05030471 0.13265398 -0.421207 0.31839693
000130 34 8d c3 be 3a 0c c9 bb 83 d3 0d 3f 6a cd f8 be
       -0.38193667 -0.0061354907 0.55400866 -0.48594218
000140 e8 81 22 be 40 66 c8 3e e8 0f 22 bf 6e f3 1e 3f
       -0.15869868 0.3914051 -0.6330552 0.62090194
000150 08 1a 5e be a2 15 fd 3e d1 da 72 3e 72 b3 26 3f
       -0.21689618 0.49430567 0.23716284 0.6511756
000160 99 bc 04 bd 94 34 1d be b7 99 a6 bc 97 97 39 3f
       -0.032406423 -0.15352088 -0.020336969 0.7249693
000170 6a 1e 2e 3e 0a 62 c2 3e 2b 80 ae be bd 0a f0 be
       0.1700379 0.37965423 -0.3408216 -0.46883193
000180 29 a7 27 bf df 7f 7d 3e 01 30 c6 be 95 71 29 bf
       -0.6548944 0.2475581 -0.387085 -0.6618894
000190 cd ec 04 bf 6b 8f 29 3f ff 33 80 be 5e 93 76 3e
       -0.5192383 0.66234463 -0.2503967 0.24079654
0001a0 b4 0f ea 3e 8a f5 15 bf cb d4 28 3f f6 d5 00 bf
       0.45715106 -0.5857779 0.65949696 -0.5032648
0001b0 18 e6 fb 3e 1a 7e 1d 3f 6a b4 24 3f b7 74 ba bd
       0.49198985 0.6152054 0.6433779 -0.09104293
0001c0 8f 54 71 bd 9e 59 1c 3f 00 46 0d bc b9 21 0d 3e
       -0.058918532 0.61074245 -0.008622646 0.13782395
0001d0 ee 54 fe 3d 07 f6 28 3e 7e 46 15 bf 5c 91 dd 3e
       0.12418543 0.16500102 -0.5831069 0.43274963
0001e0 68 5f aa be cd 7e 71 be e1 7e 97 3e cc de 48 3e
       -0.33275914 -0.23583527 0.29588988 0.1961624
0001f0 22 f9 df be da 4e 08 3f ae b8 a3 3e 51 bf 37 3f
       -0.4374476 0.5324532 0.31976837 0.717763

fc.weight f4 [2, 128]
000000 84 5a 6f bd 66 a1 f4 bc e6 60 28 bd 5e 9b 16 be
       -0.05843593 -0.029862117 -0.041108035 -0.14707705
000010 70 2f d3 3c 51 51 20 bd 44 05 ff 3e 6b 29 44 3d
       0.025779456 -0.03914005 0.49808705 0.04789106
000020 03 c0 2f 3d df 19 4c 3e 9d 25 84 3d 0c 98 cc 3c
       0.042907726 0.19931744 0.06452487 0.024974845
000030 43 b0 7c 3d 24 a3 b5 3b b6 af 6c bd c1 cf dc bd
       0.061691534 0.0055431295 -0.05778476 -0.107818134
000040 cc 87 1c bd 71 48 a3 3c 60 10 dc 3b db c7 b1 3d
       -0.038215443 0.019932004 0.0067158192 0.086806975
000050 3b ce 03 bd 8c 48 09 3d 64 4f 80 3d ed b7 28 bd
       -0.0321791 0.03351645 0.062651426 -0.04119103
000060 00 23 d0 ba 57 a7 a5 3d 5e 7c 46 3e 7b 89 9c bd
       -0.0015879571 0.08088558 0.1938338 -0.0764341
000070 f0 ca 84 3d b8 a1 d6 bd 03 bd 93 3d 10 1b be bb
       0.0648402 -0.10480064 0.072137855 -0.005801566
000080 bf ec 5f bd 00 60 ef ba d4 f5 60 bd 34 6c 22 bd
       -0.054669138 -0.0018262863 -0.05492194 -0.03965397
000090 ab cd 26 bd 23 9a a2 3d d1 fb 2c bd 0d e3 d3 3d
       -0.040723484 0.079395555 -0.04223234 0.10346041
0000a0 dc 6b ba bd e0 05 3c 3d ff 4a 90 3d 99 fa a7 3e
       -0.09102604 0.04590404 0.07045554 0.32808378
0000b0 5e 9a 94 bd 37 c2 17 bd 96 99 d6 bc ce 65 21 3d
       -0.07256006 -0.037050452 -0.026196282 0.03940373
0000c0 f7 18 59 3d 86 1b 40 3d 61 99 c1 bc 08 53 75 3d
       0.053002324 0.04690125 -0.023632707 0.059893638
0000d0 a5 3c 00 bf b2 b9 bf 3d a4 a7 ce 3d ab cb b4 3d
       -0.50092536 0.093615904 0.10090569 0.08827909
0000e0 e6 37 a0 3c f6 78 d9 3d 0f 3b b9 bd 08 2c 2c 3c
       0.019557904 0.106187746 -0.09044468 0.010508545
0000f0 7c 21 c8 bc dc 0f b1 bc 10 88 eb bd c0 7d 9d 3d
       -0.02443003 -0.021614008 -0.11500561 0.076900005
000100 7c 27 53 bd 1c 39 d5 3b d7 e3 e5 3d ca 54 09 3d
       -0.051551327 0.006507052 0.112250976 0.033528127
000110 a8 71 50 3e 52 6c 61 3d f6 3f ea bc 6b e7 ed ba
       0.20355856 0.055034943 -0.028594952 -0.0018150633
000120 d9 20 5f bd 57 68 03 bf 00 ae 10 3c 86 41 2f 3d
       -0.054474685 -0.51331085 0.008830547 0.042787097
000130 2e e6 8d bd 9c 38 55 3e 22 47 44 bd 14 a2 d3 3c
       -0.06928669 0.20822376 -0.0479194 0.02583412
000140 39 3a 67 bd 62 0c 8b bd 54 9f fc 3c e0 0d 8e 3b
       -0.05645201 -0.06789471 0.030837692 0.00433515
000150 a2 3f 2f 3e 93 a1 c4 3d b8 a2 27 be ef e0 90 3b
       0.17114118 0.0960113 -0.16370666 0.0044213454
000160 6c 87 b9 3d bb 01 ad bd 33 14 a5 3b 0e 1e 93 bc
       0.09059033 -0.08447596 0.0050378083 -0.017958667
000170 58 5e 79 3d 11 80 82 bd 00 6a e7 3a 60 3d 0f 3b
       0.06088099 -0.06372083 0.0017655492 0.002185665
000180 29 e7 a1 3d 88 4b 68 bc 36 d9 4b 3d 00 a0 f2 39
       0.079054184 -0.014178164 0.049767695 0.00046277046
000190 52 ff 19 3d 68 c0 07 3c 20 75 05 bd 9e b1 94 3d
       0.037597008 0.008285619 -0.032582402 0.0726044
0001a0 66 7b 25 3d 73 66 93 3d 01 1f a8 3d f0 0a d5 bb
       0.040400885 0.07197275 0.082090385 -0.006501548
0001b0 f6 49 4e 3d 51 27 96 3c 3b ed ef 3c a8 4b 0f bf
       0.050363503 0.018329294 0.029287925 -0.5597482
0001c0 74 83 ae bb bc 59 28 3d 8e 8e 01 bd 97 e0 12 bf
       -0.005325729 0.041101202 -0.03163009 -0.57373947
0001d0 25 3e bf bb c4 d5 09 bd 26 bc 20 3d 29 8b 17 bd
       -0.0058362656 -0.03365113 0.039241932 -0.036997948
0001e0 da 79 6f 3d f1 99 29 bb 39 68 95 bd d4 fd ef bc
       0.058465816 -0.002587911 -0.072952695 -0.02929584
0001f0 ff 4d 8e bd 98 b3 b9 bc ba cc a0 3d a8 71 3d 3d
       -0.0694847 -0.022668645 0.078515485 0.04625097
000200 ad 1a 8e 3d a4 eb f5 bc c7 0b 28 bd da 2c 9a 3e
       0.06938682 -0.030019589 -0.041026857 0.30112344
000210 5b 71 b3 3b b9 d9 9f 3d d7 9b a7 be 62 35 e7 bc
       0.0054761595 0.07805199 -0.32736084 -0.028223697
000220 87 7e 0c bc d6 6c ac bd e6 98 40 bd 51 fd a3 bd
       -0.008575088 -0.08419196 -0.047020815 -0.08007301
000230 79 07 25 3d cc ac 86 3d f6 58 b5 3b 33 6e 85 3d
       0.04029033 0.06575927 0.0055342866 0.065151595
000240 e0 c1 22 bc bf e9 3c bd e3 f6 3c bd 0d 6d 94 bb
       -0.009933919 -0.046121355 -0.046133887 -0.0045296014
000250 32 33 db bc 58 ab dd 3c b4 21 7e 3d 81 5b 84 3d
       -0.02675781 0.027059242 0.06204386 0.064627655
000260 80 92 66 bc 74 12 d5 3c 82 3f d5 bd a6 0d 99 bd
       -0.014073014 0.026009776 -0.10412504 -0.07473306
000270 5f 19 95 bc d5 9b 27 3e f4 a2 9d bc b4 50 9e bd
       -0.018200574 0.16368039 -0.019242741 -0.07730237
000280 9a f2 7b 3d a0 24 2f 3c 84 84 43 3d e3 48 b3 3b
       0.06151066 0.010689884 0.0477338 0.0054713353
000290 df 3d 4b bd 81 a1 95 bd ac 0b 01 bb f1 b6 36 bd
       -0.04961955 -0.07306195 -0.0019690795 -0.04460806
0002a0 4f d8 97 bc 68 30 a9 bd 8c e0 8b bc 22 31 ed be
       -0.018535761 -0.08261186 -0.017074846 -0.46326548
0002b0 4d ed 01 3e b5 ba 60 3c cf 11 7f bd 6f d6 aa 3d
       0.1268818 0.013716389 -0.062272843 0.08341681
0002c0 2c 27 6a 3c 98 39 42 3d d1 6a 37 bc b6 5c 68 bb
       0.014291566 0.047418207 -0.011194901 -0.003545565
0002d0 ae b2 b9 3e 26 97 92 3d b7 5f 27 bd 3e ff 52 be
       0.36269134 0.071577355 -0.040862765 -0.2060518
0002e0 2f f2 53 3b ae 7f 5a 3d da ba 3d bc a0 9a aa bb
       0.0032340398 0.05334442 -0.011580193 -0.005206421
0002f0 28 ab b7 3c 78 2d 08 3c 9b 35 0f 3e 6e 30 0a 3c
       0.02242048 0.008311622 0.13985293 0.008434398
000300 b0 5c 72 3c f0 b6 33 bd c3 b2 20 be b9 61 69 3d
       0.014792606 -0.043875635 -0.15693192 0.05697796
000310 ea ea ca bd 47 ca 93 3d a0 a6 bc bb 78 27 2c bd
       -0.099080876 0.07216316 -0.005757168 -0.042029828
000320 d4 e0 96 bd 3e 46 c1 3e bb c4 a1 3d 20 96 c9 3d
       -0.07367101 0.37748903 0.078988515 0.09843087
000330 f8 11 a0 3c 99 b7 82 be c3 e9 3f ba ba ca 3d 3d
       0.019539818 -0.255307 -0.0007320905 0.046335913
000340 11 5a 34 bd 81 32 1b 3d e4 d8 b0 3c 37 76 38 3d
       -0.044031207 0.03788996 0.021587797 0.045034613
000350 72 99 0e 3f df d6 3f 3d ca 8e 04 3e e5 ca 6e 3d
       0.5570289 0.046835776 0.12945095 0.058298964
000360 ae f3 24 be c9 dd 86 3d 87 99 79 bb 0a 6d b5 3d
       -0.16108581 0.06585271 -0.0038085894 0.08858688
000370 39 32 a8 3c 4f 8a c6 3d 94 94 a5 bc f2 92 72 bd
       0.02053176 0.09694349 -0.02021245 -0.05922217
000380 60 19 e3 bb 22 f4 86 3d d4 a5 89 bc e5 24 15 bd
       -0.006930515 0.065895334 -0.016802706 -0.03641214
000390 1b 1a 01 bd a0 13 f9 3d 4b 8d b0 3d cd bb c5 bc
       -0.031519037 0.12161946 0.086206995 -0.024137402
0003a0 c9 d7 0c 3d 28 9d d1 3c da 7c 8f 3c 90 b0 03 3d
       0.034385476 0.025587633 0.017515589 0.032150805
0003b0 13 bb 9d bc 7f 49 e1 3c 56 69 8d bd 44 6c 88 3e
       -0.019254243 0.027500866 -0.06904857 0.266451
0003c0 6b ff 87 3d 32 7d 8f bd 00 35 a7 bb f9 fe 14 3f
       0.06640514 -0.07006301 -0.0051027536 0.5820156
0003d0 c4 c6 a2 3c 1a 52 96 bd 1c a4 62 bd dd 32 e0 3d
       0.01987017 -0.073398784 -0.05533229 0.109472014
0003e0 ef 30 a9 3d d9 19 8c bd 42 3f 62 3d 15 40 9e 3d
       0.082612865 -0.068408675 0.05523611 0.077270664
0003f0 18 2e 84 bc c1 87 08 3d 32 65 8b 3d 07 78 ea 3c
       -0.01613526 0.03333259 0.06806411 0.028621687

fc.bias f4 [2]
000000 e3 95 8a 3d 62 e7 1e 3d
       0.0676687 0.038794883
