Saved_LSTM_Models/lstm1_3inputs_3outputs_a198e5.pt (torch, 5647 bytes, 8 tensors)

lstm.weight_ih_l0 f4 [8, 3]
000000 ff 4c 20 3f 6b 56 4c 3f 46 64 aa 3e 6e 84 de 3e
       0.62617487 0.79819363 0.33279628 0.4346041
000010 17 b1 18 3f 49 b1 0d 3f a1 16 02 3f 48 ec f0 be
       0.5964522 0.5534864 0.5081578 -0.47055268
000020 40 11 8f 3c 55 fe 0d 3f 37 33 b4 be 4d 78 2b 3f
       0.01746428 0.55466205 -0.35195324 0.6698044
000030 f5 2f 6a 3f e9 6a 58 be 73 c4 69 3d aa 5c 1b 3d
       0.91479427 -0.21134533 0.057072114 0.03793017
000040 9a 4e 57 3e 4f e4 1a bf 5a d1 19 be 41 dd 5c 3f
       0.21026078 -0.6050462 -0.15021268 0.86275107
000050 2d 75 c3 bd 85 a6 c5 3e 1a b5 ce 3e 0e 67 53 be
       -0.09543834 0.38603607 0.40372545 -0.20644781

lstm.weight_hh_l0 f4 [8, 2]
000000 a4 a7 0d 3e d4 a4 45 be 00 d2 6d 3d 6b 27 01 3f
       0.13833481 -0.19301158 0.0580616 0.5045077
000010 76 54 f2 3e 49 c5 04 bf a1 47 19 3f be 3e c6 3e
       0.47330064 -0.51863533 0.5987492 0.38719743
000020 67 bf 1e bf c8 80 a0 3d 90 e1 86 3d 4f f8 2a bf
       -0.62010807 0.07837063 0.065859914 -0.6678514
000030 32 a5 8e 3e a8 ce 18 be 1a 1b ca be a0 62 1e bd
       0.2786041 -0.14922583 -0.39473802 -0.038668275

lstm.bias_ih_l0 f4 [8]
000000 41 f5 ca be 23 22 04 bf 1f a4 0f 3f 7f 37 f0 be
       -0.3964024 -0.5161459 0.56109804 -0.4691734
000010 c4 64 b2 be e1 a9 31 bf 01 02 6c 3f cf b9 c2 3e
       -0.34842503 -0.6939984 0.9219056 0.38032386

lstm.bias_hh_l0 f4 [8]
000000 b8 13 21 3f 5c 52 a6 be b0 5a 2c 3d 28 55 1a bf
       0.62920713 -0.3248471 0.042078674 -0.6028619
000010 b1 ba d7 3e 4e a4 38 3e d7 2e 4e 3f 86 9e 0c bf
       0.42134622 0.18031427 0.8054022 -0.5492939

fc_1.weight f4 [128, 2]
000000 dc b1 0c bf af 1b 1a 3f 58 98 e0 bd 5a be 0f bf
       -0.5495889 0.6019849 -0.10966557 -0.5614983
000010 ef 94 2d 3e 1a 00 c9 3e cb 38 d1 3e 00 b8 8d 3e
       0.16951345 0.3925789 0.40863642 0.27679443
000020 f0 82 51 3f c5 48 b9 3e f4 3b 1f 3f d4 b4 f2 bc
       0.8184042 0.3618833 0.62200856 -0.029627241
000030 6b 43 51 3f 1b 3f 92 be 4c c5 34 bf 3b 74 44 3f
       0.81743497 -0.2856377 -0.7061355 0.76739854
000040 e7 ab 55 bf 59 dd 9b 3e 58 ad 40 3f 72 16 c7 be
       -0.8346543 0.30442312 0.752645 -0.38884312
000050 2a 26 4e bf 73 f2 d6 3d 28 f6 cd bd 08 e8 cb bd
       -0.80526984 0.10495462 -0.10056716 -0.09956366
000060 00 9e bc 3a 96 9d cc 3e 4f a4 6b bd eb c9 e7 3e
       0.0014390349 0.3996398 -0.057529744 0.4527124
000070 9d 73 1a 3f 74 bf 24 3f af d3 b6 be a0 17 c2 3e
       0.6033266 0.64354634 -0.35708377 0.3790865
000080 11 2c 2a 3f c6 36 99 3e a0 4e 49 bf 1c cb b0 3e
       0.6647349 0.299246 -0.786356 0.3452996
000090 82 7a 3d be e4 11 9c 3e 27 3e f1 be 49 99 a0 be
       -0.18503764 0.304824 -0.4711773 -0.31366947
0000a0 52 54 5d 3f 52 c3 00 be 1f df 49 bf 69 bd 17 bf
       0.8645679 -0.12574509 -0.7885608 -0.5927339
0000b0 10 16 af be 7e 9f d7 3e 98 ca 85 3e 89 6a 11 3f
       -0.3419652 0.4211387 0.2613113 0.56803185
0000c0 b6 bf fe be 9c f8 f2 be c9 96 c5 3e 26 1a 87 3e
       -0.4975564 -0.474553 0.38591602 0.26387137
0000d0 7f d5 23 be 96 50 a6 be 40 8b c6 3c b7 8f 1c 3f
       -0.15999411 -0.32483357 0.024236321 0.6115679
0000e0 aa b7 28 bf 82 43 c4 bd b7 19 9b be 43 32 ae be
       -0.6590525 -0.095831886 -0.30293056 -0.34022722
0000f0 eb e6 ae be 25 34 02 3f d6 42 e5 be 88 f8 a3 be
       -0.3416055 0.50860816 -0.44777554 -0.32025552
000100 80 2e 2c bc 52 7a ab 3e 34 72 a5 bd cf 4f b7 3e
       -0.010509133 0.3349176 -0.08078423 0.35803077
000110 97 da 30 3f 70 d2 4c 3d 2e f9 07 bf 72 96 89 3e
       0.6908354 0.050005376 -0.53114593 0.26872593
000120 a0 d9 f0 bc 9b f0 0e bf a5 ea ef 3c 4a fd 22 3f
       -0.029400647 -0.55835885 0.029286692 0.6366774
000130 66 17 24 3f 38 be a2 3e e4 be 46 be 20 2c 9f 3d
       0.64098203 0.3178575 -0.19408756 0.07772088
000140 d5 ab 20 be dd 54 b6 3e 3c 14 7a bf f3 8a c7 be
       -0.15690549 0.3561162 -0.97687125 -0.38973197
000150 27 d9 10 3f 70 99 39 3d fa 93 5c be 37 cb 23 bf
       0.5658135 0.045312345 -0.21540824 -0.63981956
000160 4e 92 06 3e 19 19 53 be 36 80 d2 be a2 62 a8 be
       0.13141748 -0.20615043 -0.41113442 -0.3288775
000170 60 f5 1b be c0 bd 2b bd 11 23 53 3f ef 39 fe be
       -0.15230322 -0.041929007 0.8247538 -0.49653575
000180 54 72 cd 3e c1 3f 98 3e 84 78 53 bf c8 92 3a 3e
       0.40126288 0.2973614 -0.8260577 0.18220055
000190 63 7c 25 3f ed 53 c3 be d7 ab c8 3c ec a6 f6 be
       0.64642924 -0.38149968 0.024496002 -0.48174226
0001a0 fb b6 a9 be f2 4a eb 3e 32 7a 68 be a6 07 bc 3e
       -0.33147416 0.45955616 -0.22702864 0.36724585
0001b0 24 d7 df 3e e6 c4 58 3d 61 af f5 3d b0 b5 52 3f
       0.43718827 0.052922152 0.119963415 0.82308483
0001c0 51 b0 13 bf cc 9a 0f 3f 6b 36 21 bf a9 20 25 bf
       -0.5769091 0.56095576 -0.6297366 -0.6450296
0001d0 80 ba 66 bc 92 f7 f9 3e 1e 32 7a 3f f6 67 ee 3c
       -0.014082551 0.48821694 0.9773272 0.029102307
0001e0 4a d3 a8 3e c2 93 1d bf c0 ab 16 be c7 cb 33 3f
       0.329737 -0.61553586 -0.14713955 0.70232815
0001f0 e0 31 d3 bd 1c 0c 57 be a3 e5 13 3f 12 d1 de 3e
       -0.10312247 -0.21000713 0.5777227 0.43518883
000200 b8 70 7c bd f0 95 8c 3e 9f 1e 25 3f e5 cf 7b be
       -0.061630934 0.27458143 0.6449985 -0.24591024
000210 ef e1 ec be 48 54 74 3e 16 cf 2e 3e d3 e1 15 bf
       -0.46266124 0.23860276 0.17071185 -0.58547705
000220 71 0d cf bd 41 de 61 be 72 0d 78 3e ff 6c dc be
       -0.101099856 -0.2205744 0.24223879 -0.43051907
000230 79 b6 ef 3e 7d 13 bd be 16 d5 82 be 72 87 7c bd
       0.46818903 -0.3692893 -0.25553197 -0.06165261
000240 45 19 07 3f 93 df 34 3f b0 ec e6 be fe a1 4e bd
       0.52772933 0.7065365 -0.45102453 -0.050447457
000250 f0 12 9f bd 86 92 1e bf be 49 c2 3e 20 58 84 bc
       -0.07767284 -0.6194233 0.37946886 -0.016155303
000260 91 e9 16 3f ea c0 f9 3e b4 95 73 3e 58 5a c3 bd
       0.58950144 0.48779994 0.23787576 -0.09538716
000270 a0 7b 1e bf 88 86 13 bf 59 ac 80 be 3b bb fe be
       -0.61907387 -0.57627153 -0.2513149 -0.4975222
000280 8a 93 f0 be 4d 18 89 3e ba 73 15 3f 5a 28 33 be
       -0.46987563 0.26776353 0.5837971 -0.17495862
000290 e1 e2 ef 3d 82 2e 3f 3e c5 be 31 3f a2 48 f1 3e
       0.117131956 0.18670085 0.69431716 0.47125727
0002a0 df 15 25 bf b7 10 24 3f c2 dd 8c 3e 67 d3 ac 3d
       -0.644865 0.64088005 0.27512938 0.08438759
0002b0 36 8a ec 3e c0 fb 80 3d 38 30 2d 3d a3 3a 19 3e
       0.46199197 0.062980175 0.042282313 0.14963774
0002c0 fb 12 2a bf 2a bf 22 3f 1b ad 57 3e a1 49 55 be
       -0.6643521 0.63572943 0.21062128 -0.20828868
0002d0 96 60 e4 3d c4 00 84 bd eb 0b 16 bf 00 ec a1 bd
       0.11151235 -0.064454585 -0.58611935 -0.079063416
0002e0 4c 31 1d be 9a f1 f0 3e 10 e1 7f bd 00 93 9e bb
       -0.15350837 0.47059327 -0.062470496 -0.004839301
0002f0 63 96 62 be d7 47 3a 3e 21 e5 50 be 70 14 be be
       -0.2212768 0.18191467 -0.20399906 -0.37124968
000300 b6 04 9b be 19 97 0e 3f 1c 96 ef be 26 e5 8b 3e
       -0.30277032 0.55699307 -0.46794212 0.27323264
000310 b2 25 83 3e 63 48 07 bf a5 0c 42 3e bc ca de bc
       0.25614697 -0.5284483 0.18950136 -0.02719628
000320 62 22 0d bd 58 ad 10 3d cc d8 1a bd d3 12 96 bc
       -0.034456618 0.035321563 -0.03780441 -0.018319523
000330 e2 e4 3f 3f 36 a0 f3 3e e0 b2 a7 3d 80 19 80 bd
       0.7495862 0.4758317 0.081884146 -0.06254864
000340 91 e5 36 3f 02 7a 01 3f e7 6c 14 bf 50 c2 ba 3d
       0.7144404 0.50576794 -0.5797867 0.091190934
000350 b0 0c a9 bd 2b 27 33 3f f9 39 08 3f 4d 68 00 bf
       -0.08254373 0.6998164 0.5321346 -0.5015915
000360 99 e2 c1 be b3 ba 0c 3f 28 82 cc 3e 88 4c ad 3e
       -0.37868193 0.5497238 0.3994305 0.3384745
000370 60 21 c3 bc fc 42 2e 3e eb e0 7b 3f 86 49 20 bf
       -0.023819625 0.1701774 0.9839007 -0.6261219
000380 c3 1d 90 3e ca 47 4f 3f 2b 37 3a 3f c8 3c 76 3e
       0.28147706 0.80968916 0.7274043 0.24046624
000390 eb 94 46 bf e6 04 d0 be 83 c9 83 be e6 89 f5 3e
       -0.7757098 -0.40628737 -0.2573968 0.4795677
0003a0 4e 48 9b be 46 fb 24 bf 30 5b 32 3e a2 b4 25 bf
       -0.30328602 -0.6444591 0.17417598 -0.6472875
0003b0 04 d3 1a bf fd 09 b7 be dc 22 d2 be 82 49 c5 3e
       -0.60478234 -0.35749808 -0.4104222 0.38532645
0003c0 70 39 c4 3d d0 69 79 bd 30 06 3e 3d 7c 2a 86 be
       0.09581268 -0.060891926 0.04639262 -0.26204288
0003d0 37 b6 be 3f 16 ff 24 3f a3 8c 0e 3f 26 4f d9 3e
       1.4899358 0.6445173 0.55683345 0.42443198
0003e0 60 74 00 3d 40 fc fe bd 30 79 73 be 54 54 2a bf
       0.031360984 -0.124504566 -0.23776698 -0.66534925
0003f0 97 6c 32 bf d8 67 58 3f 68 98 1d bf 18 4f 8d 3e
       -0.69696945 0.84533453 -0.6156068 0.27599406

fc_1.bias f4 [128]
000000 b4 f7 2c 3f c7 9c d7 be 1f 08 30 3e 7c d5 1f 3e
       0.67565465 -0.421118 0.17190598 0.15608782
000010 0e 40 0d 3e 16 31 2b 3e 3c 16 db 3d 23 f3 22 3f
       0.13793966 0.16717944 0.106976 0.6365225
000020 95 03 23 3f 60 e8 00 3f 7e 3c dd 3e c8 3e d9 bd
       0.6367734 0.50354576 0.43210214 -0.10607678
000030 18 4b f9 bd 9c b5 54 bd b4 ff e4 3e 8f 5c 04 bd
       -0.12172526 -0.05193101 0.44726336 -0.032314833
000040 b0 f6 d3 be 2c 1d 94 3e b3 4b 45 3e 5e b6 1f bf
       -0.41399145 0.28928506 0.19267158 -0.62387645
000050 1b fe 05 3f a9 10 52 3e 50 8f e0 3e 12 90 fb be
       0.5234086 0.20514168 0.4385934 -0.49133354
000060 ed 89 71 3e 96 82 b8 3d 43 62 06 3e 6c 79 43 be
       0.23587771 0.09009282 0.13123421 -0.19089288
000070 15 71 8c 3e d6 27 12 bf 10 e5 b2 be 3e 9e a3 be
       0.27430025 -0.57092035 -0.34940386 -0.31956667
000080 27 67 80 be 23 4e 47 bd eb 72 18 bf 1e ca 09 bf
       -0.250787 -0.0486585 -0.5955035 -0.5382403
000090 38 ad 0a bf 0a f0 88 3e 0b 8c 15 3b c0 15 f9 bd
       -0.5417056 0.26745635 0.0022819068 -0.121623516
0000a0 05 e0 1b 3e 2d 34 1d 3f aa e1 fb be 5c aa 1a be
       0.15222175 0.6140774 -0.49195606 -0.1510405
0000b0 d4 1b f2 3d 89 b3 fd be 86 fb aa be 2f 3b b4 3e
       0.11821714 -0.49551037 -0.33395022 0.35201403
0000c0 39 4c 60 be 51 d2 a5 3e 99 7f cf 3e ce 7b 23 3f
       -0.21904077 0.3238702 0.40527037 0.63860786
0000d0 f0 5c 34 be 01 73 a8 be 5e 88 7a be 59 10 6b 3d
       -0.17613578 -0.3290024 -0.24466082 0.057388637
0000e0 7c 9c f5 3e 3b 69 d4 be 5e 8b c8 be 1b 12 0c 3f
       0.4797095 -0.41486534 -0.3916883 0.54715127
0000f0 e1 ed 52 3e b4 49 18 bf d0 3b ff be a7 18 2f bf
       0.20598556 -0.5948746 -0.4985032 -0.6839699
000100 a9 fb 06 3e 29 ff 33 3e e0 86 fd 3c 13 79 bd bd
       0.13181938 0.17577805 0.030948102 -0.09251609
000110 b6 9f 1c 3d 39 68 13 3f 40 85 23 3f 82 b0 29 3f
       0.03823825 0.57580906 0.638752 0.66284955
000120 3c d9 ad be d7 71 2a 3f b7 77 b4 be ff 13 16 bf
       -0.339548 0.66579956 -0.35247585 -0.5862426
000130 69 7a 00 3f 42 a0 b7 3e 82 91 08 bc f5 72 85 be
       0.50186783 0.35864455 -0.008335473 -0.26064268
000140 83 e7 8f 3e ee 5a 23 3e 6d 9f f9 3e 36 6b 18 bf
       0.28106317 0.15952656 0.48754445 -0.5953859
000150 9e ff 10 bf 4e dd 51 3e d0 0f 82 be 5e 71 86 3e
       -0.5664004 0.20494577 -0.2540269 0.26258367
000160 df 72 16 3f 44 f8 d3 3e 69 3a ae 3e 6b b1 13 bf
       0.5876903 0.4140035 0.34028938 -0.57692593
000170 17 d6 a6 be e0 bc ca be af b8 8e 3e f7 f0 be 3e
       -0.32585213 -0.39597225 0.27875277 0.37293217
000180 26 c3 af be 9c 25 06 bf c4 8a 42 be 0d 49 18 3f
       -0.34328574 -0.5240114 -0.18998247 0.59486467
000190 91 ad c6 3e 49 86 2a 3f a9 13 9a 3b f4 fe 45 be
       0.38804296 0.6661115 0.0047020507 -0.19335538
0001a0 91 9e 1d 3f d7 66 f4 be 39 4d 9b 3e ff 8a 1d bf
       0.6157008 -0.4773471 0.30332354 -0.61540216
0001b0 a7 e5 cf 3e 53 b6 ee 3e c0 26 b8 bd 81 88 ae be
       0.40604898 0.46623477 -0.08991766 -0.3408852
0001c0 75 c7 ca 3e da 6c 17 3f fd 48 d5 3e e6 41 04 bf
       0.396053 0.5915047 0.41657248 -0.51663053
0001d0 d2 ed 27 bf 75 d5 f2 be c0 78 87 bd 24 80 51 be
       -0.6559726 -0.4742848 -0.06614828 -0.20459038
0001e0 a8 9f 33 be 84 93 64 be e5 67 02 bf 3f a5 d8 be
       -0.17541373 -0.22321898 -0.5093978 -0.42313573
0001f0 00 55 67 bd f6 f5 c6 be 38 d9 e1 3e 6a 53 ec be
       -0.056477547 -0.38859528 0.44111037 -0.4615739

fc.weight f4 [3, 128]
000000 8e 19 af 3d a0 6b 09 bc 16 35 16 bc 02 e3 79 bd
       0.08549796 -0.008387476 -0.00916793 -0.061007507
000010 cc 6b 6f bd 36 8c a4 3d 94 07 b8 bd 5a 89 bc 3d
       -0.058452412 0.080345556 -0.089858204 0.09205885
000020 c4 a4 3e 3d fc 5d 9f 3d c8 9e c9 3d e0 36 cb 3b
       0.04654385 0.07781598 0.09844738 0.00620161
000030 b0 51 8e bb b1 57 d4 3d 2e c2 83 3c 09 a7 ef bc
       -0.004343234 0.10368288 0.016083803 -0.029254453
000040 90 76 d5 3c 7c ea bf 3d fd 2f 9f 3d a0 f2 a6 3b
       0.026057512 0.09370896 0.07772825 0.005094841
000050 6f 43 03 3d f3 02 cb 3d bf 1a bf ba 59 33 ae 3d
       0.03204673 0.09912672 -0.0014580115 0.085058875
000060 58 3c c8 3c 07 73 2a 3d 5f a8 c7 3d ca 2e 8c bd
       0.024442837 0.041613605 0.09748911 -0.06844862
000070 27 6d 5f 3d ec 4c 63 bd d3 a5 91 3d 80 a5 ab 3a
       0.054547455 -0.05549328 0.071117066 0.0013095587
000080 f3 6d 49 bd 25 bf 59 3d 54 a2 be bc 5b dd aa 3d
       -0.04917712 0.053160805 -0.023270763 0.083430015
000090 99 ac 12 bd 30 bc 1a bc 90 89 fa bd 08 d7 47 bc
       -0.035809133 -0.009444281 -0.12233269 -0.012197264
0000a0 69 56 dd 3c ed b3 7b 3d 02 e2 1c 3d 80 b7 3e ba
       0.027018743 0.061450887 0.038301475 -0.00072752684
0000b0 d6 95 aa 3d f2 db 1c 3d bf 03 0d bd ef 08 2f 3d
       0.0832936 0.038295694 -0.0344274 0.04273313
0000c0 0a 48 25 3d eb 65 42 3d 62 95 2c bd bd 2d c7 3d
       0.040351905 0.047460478 -0.04213465 0.09725521
0000d0 de 49 3e 3d a4 25 e6 bc 11 73 8c bd 21 0d 57 3d
       0.046457164 -0.02809412 -0.06857885 0.052502755
0000e0 8b 32 6f bc 12 14 0e 3d 40 ad bb bc 38 d2 38 bc
       -0.014599453 0.03468711 -0.02290976 -0.011280589
0000f0 43 10 10 3c 7c 45 39 bd 8c b2 d7 3c 02 3e 1d bd
       0.00879294 -0.04523228 0.026330255 -0.038389213
000100 76 1b 3d bd 27 8f c9 bc 79 6e 46 bd b5 d9 85 3d
       -0.046168767 -0.024604393 -0.0484452 0.06535665
000110 04 e3 c4 3d b9 54 06 bb 19 26 0b bd de af f6 3d
       0.09613612 -0.0020497276 -0.03397188 0.12045263
000120 40 e0 12 bb 98 ac 47 3d e4 42 91 bd 10 ce 7e bc
       -0.0022411495 0.048748583 -0.070928365 -0.015552059
000130 5d 29 e5 bc eb 51 56 3d c9 fa c3 3c c0 58 67 3b
       -0.027973825 0.052324217 0.023923295 0.0035300702
000140 60 0b fb 3d 09 a9 56 bd 1f b5 7d 3c 21 ae b4 3d
       0.12258029 -0.0524073 0.015485077 0.08822275
000150 28 1d eb 3c 3c ac 28 3d da ff 22 3d 00 b6 03 3d
       0.028700426 0.04117988 0.03979478 0.03215599
000160 ee f6 f9 3d 2f f0 e7 3c 97 85 ad bc 60 70 76 bc
       0.12205301 0.02831277 -0.021181865 -0.015041441
000170 2a d9 7c bd 6e ec 2c 3d 07 02 1d 3d c3 9c 09 3b
       -0.06173054 0.042217664 0.03833201 0.0020997978
000180 4e c7 2e 3d 57 45 84 3d 17 f0 0e bd 09 0d a6 3b
       0.04267054 0.06458538 -0.034896936 0.005067472
000190 d2 b9 92 3d 3f f1 c7 3d 7f f9 2f be 70 47 58 bc
       0.07164349 0.09762811 -0.17185019 -0.013200626
0001a0 cd 47 ff bb ab 0f 90 bd 58 36 24 3c 73 b1 80 3d
       -0.0077905417 -0.070342384 0.010022722 0.06283846
0001b0 0b 0c 00 bd c3 33 0d bc 42 b7 52 3d eb 12 48 3f
       -0.031261485 -0.008618298 0.0514443 0.78153867
0001c0 79 82 4c 3c ad 63 80 3d dd c9 bb 3d f0 ee b3 bb
       0.012482279 0.06269012 0.09169362 -0.00549113
0001d0 d8 22 b9 3c d1 eb 8b 3d c0 1e 28 bc 18 34 d4 bc
       0.022599623 0.06832088 -0.010261238 -0.025903746
0001e0 81 a8 8f 3d e7 5c 9b 3d e6 fc 7a bf f1 1e 93 bd
       0.070145614 0.07586079 -0.9804214 -0.07183636
0001f0 cc 96 95 bd a8 2c 2b bc 17 0a 02 3e 0a 3f 4e 3d
       -0.07304153 -0.010447659 0.12699161 0.050353087
000200 a3 66 0b 3d 56 b2 2a 3d 83 a7 c0 3d f4 fe e7 3b
       0.03403343 0.04167398 0.0940695 0.0070799533
000210 0f 49 ce 3c b9 a2 ee 3d bd 68 4c 3c 22 c4 f5 3c
       0.025181321 0.11652131 0.012476143 0.03000075
000220 31 91 d2 bd 3e 98 6b 3d 72 3a ba bd 22 8d 2e 3d
       -0.10281599 0.057518236 -0.09093179 0.042615063
000230 5a 33 5e 3d f4 bb 34 bd c2 88 d5 3d cb 6d 1b bd
       0.05424819 -0.04412456 0.10426475 -0.037946504
000240 a7 17 51 bd b9 51 69 3c e2 c8 66 3d e9 85 a9 3d
       -0.051047947 0.014240676 0.05634392 0.082774945
000250 e1 ec bb 3d 64 ca b5 bd 10 c1 15 3d 00 95 4a bb
       0.091760404 -0.088764936 0.036561072 -0.0030911565
000260 d1 96 d8 bd fb 21 4c 3c df 9d 23 3d 7b 2c 80 3d
       -0.10575641 0.012459273 0.03994548 0.06258484
000270 e1 4b 56 bd 62 5a 44 3d 65 98 9e 3d 6a ee 3c bd
       -0.052318458 0.04793776 0.07743911 -0.046125807
000280 63 2a 19 bd c6 68 92 bd 74 29 b0 bc 91 ec 80 bd
       -0.03739394 -0.0714889 -0.021504141 -0.062951215
000290 5b 19 b1 bd 3c b3 46 3d e8 ff 1b 3e 84 d1 94 bd
       -0.08647414 0.048510775 0.15234339 -0.072665244
0002a0 f6 48 64 3d a6 7e 71 bd a1 3c 83 3d 51 c0 ae 3d
       0.055733643 -0.058958672 0.064080484 0.08532775
0002b0 bf c7 e0 3c 00 a6 10 3a d8 c5 88 bd 85 e3 90 3d
       0.027438996 0.00055179 -0.06678361 0.07074646
0002c0 de 4a bd 3b 07 c9 a9 bd 71 65 6a bc 76 f1 ce 3c
       0.005776747 -0.08290296 -0.014306412 0.025261622
0002d0 b3 45 95 3d 40 d7 e9 ba 72 a9 89 3d fe 6c 61 3d
       0.07288685 -0.0017840639 0.06721772 0.055035584
0002e0 b6 e9 ba bd a6 78 0d bd 1e 79 75 bd 0d c5 d3 3d
       -0.09126608 -0.034538887 -0.05992996 0.10340319
0002f0 22 51 09 bc 85 fd 0b bd 7c 7b f7 bc b0 6a 7a bd
       -0.00838116 -0.034177322 -0.03021025 -0.0611369
000300 0d c1 17 bd cc c2 28 3d 40 27 9f bd 7d e0 cb bd
       -0.037049342 0.041201398 -0.07771158 -0.09954927
000310 8c 63 36 bd 30 9d 1b 3d 21 a9 1c bc 92 e9 92 3d
       -0.04452853 0.037991703 -0.009561808 0.07173456
000320 13 71 0a bd b9 3e bd bc b9 88 84 bd d0 30 ba 3c
       -0.033799242 -0.023101198 -0.0647139 0.022728354
000330 33 0b b5 bc 0c df ea 3c cf e3 3e 3d 38 37 62 bc
       -0.022100067 0.02867081 0.046603974 -0.0138071105
000340 de f5 e0 bd 0e 5a cf 3d 6f 3e 9f bd 8a b6 1e 3d
       -0.109843954 0.101245984 -0.0777558 0.0387483
000350 b4 2f 0e 3d e6 cf c9 3d 34 a1 bc bc ba c0 1a 3d
       0.034713462 0.098541066 -0.023026086 0.037781455
000360 e9 cf 94 3c 98 ee 5e bd dd ad 90 bd 2e dc 30 bd
       0.018165546 -0.05442676 -0.07064412 -0.04317873
000370 ba 32 66 3d 80 bb 36 ba ff f1 6e ba 95 85 97 3c
       0.05620072 -0.00069706887 -0.000911504 0.018496314
000380 5a 9b 22 bd 2f d2 38 bd 56 08 a2 bd 32 d1 ac 3d
       -0.039698936 -0.04512232 -0.07911746 0.08438338
000390 31 77 76 bb 8e a4 d5 3c 22 50 23 3e a0 05 07 3b
       -0.0037607665 0.026079442 0.15948537 0.0020602718
0003a0 25 32 2b bd ae 55 12 3d 03 bc 8f bd b2 ac 18 3d
       -0.04179587 0.03572624 -0.07018282 0.03727407
0003b0 f0 e5 0e bd ca 07 b9 3d e8 1b 37 bc e6 3d 68 bf
       -0.034887254 0.09034689 -0.011176087 -0.9071945
0003c0 be 21 3e bd d4 93 86 3c 4c d1 c1 bc d9 ea ad 3d
       -0.046418898 0.016427912 -0.02365937 0.08492059
0003d0 b8 00 81 bd 51 69 9f 3d 3b d8 35 bd f8 10 69 3c
       -0.06298965 0.077837594 -0.044395667 0.014225237
0003e0 9c 1e 8e 3c 40 c8 32 bb 9b 08 63 3f 50 b0 fc bc
       0.01734858 -0.0027280003 0.88685006 -0.030845791
0003f0 ca c2 33 3d 4a c3 33 3d 6f f7 f2 bc e5 5b 9f bd
       0.043886937 0.043887414 -0.029659001 -0.07781199

fc.bias f4 [3]
000000 81 e3 22 3d 42 be 1c bc 19 6a 85 bd
       0.039767746 -0.009566845 -0.06514377
