Saved_LSTM_Models/lstm1_1.pt (torch, 5199 bytes, 8 tensors)

lstm.weight_ih_l0 f4 [8, 5]
00000000: 3edc 7fbd 7c59 3dbf ce98 b0be d1c0 40bf
00000010: b5f3 45bf 340a fbbe de97 7dbe 5106 3e3f
00000020: 65fc ef3e 66ca 993d c87f 87bd aee8 ac3e
00000030: 59d1 003f 90fe 2b3e 65a6 88be e8fd c4be
00000040: 6071 dd3d 97a3 273f f86a 29be a5fa 2b3f
00000050: e971 bdbe 4e38 863e f3e0 ef3e f7c9 ca3d
00000060: 2e3b 3cbf 3041 29bf 314c 103f 9ef4 08bf
00000070: 9bb7 0cbf bee1 3e3f 2b38 133f ed19 be3e
00000080: 3182 8e3e aa6c 20bf e436 15bf 9639 f9be
00000090: 5929 3f3f b3f1 01bf 828e 843e 7598 a73e
-0.0624659 -0.7396467 -0.3449158 -0.75294214 -0.7732499 -0.49031222 -0.24764964 0.7422839
0.4687225 0.075093076 -0.06616169 0.3377127 0.5031944 0.16796327 -0.2668945 -0.38474965
0.1081264 0.65483993 -0.16544712 0.6717933 -0.3700097 0.26214832 0.4685131 0.09901803
-0.735278 -0.66115093 0.5636626 -0.53498256 -0.5496766 0.74563205 0.5750758 0.37129155
0.27833703 -0.6266581 -0.5828688 -0.48676747 0.74672467 -0.5075943 0.25889975 0.32733503

lstm.weight_hh_l0 f4 [8, 2]
00000000: 862c dc3e 0890 e73d c012 2abc 6166 053f
00000010: 0b5f e9be 7dda 88be 608b 953d 234d cbbe
00000020: dee1 bb3e 878e 243f 2006 263d 1afc bf3e
00000030: 82eb bd3e 00c2 943a c2d8 02bf 4040 7abc
0.4300272 0.11306769 -0.010380447 0.5210934 -0.45580325 -0.26729193 0.07301974 -0.39707288
0.3669576 0.6427998 0.040533185 0.37497026 0.3709374 0.001134932 -0.51111996 -0.015274107

lstm.bias_ih_l0 f4 [8]
00000000: c11d 0c3e 7ea2 d1be b2a5 eebe 93c7 8abe
00000010: 24b3 453f 6f9e 71be 340b c8ba 0640 7f3d
0.13683225 -0.40944284 -0.4661079 -0.27105388 0.7722647 -0.23595594 -0.0015262128 0.062316917

lstm.bias_hh_l0 f4 [8]
00000000: 7499 3cbe c795 dfbe 8070 33bc c0ba e8be
00000010: a8e6 573f 9949 55bc bb3c b03e e834 d93e
-0.18417913 -0.4366896 -0.010952115 -0.4545498 0.8433633 -0.013018035 0.34421334 0.42423177

fc_1.weight f4 [128, 2]
00000000: d5de 963e 432e 103f b342 353f 6328 1a3f
00000010: f163 1dbf 8d1d 0cbf 10b6 1b3e d00d f13d
00000020: ad69 953d 0bf9 b5be 23b0 283e 4d98 c4be
00000030: 86bf ac3e 800e e83c 48ba 02bf 2b31 42be
00000040: 0677 413f daf9 b13d 3625 ddbe f07b 50be
00000050: c94d acbe 8f94 c8be 91a6 16bf 0419 693d
00000060: 5ecf 8f3e 80d7 4f3d c151 0e3d 2e2c 7ebd
00000070: ad53 f1be f20b b7be 53bd abbe 4020 84bc
00000080: ff21 ea3e 8a89 253f 804e cbbb a016 aebc
00000090: bc0a 453f a61b 12bf eb5c 0c3f c27f 29bf
000000a0: 11a4 12bf 5006 f0be 92c6 0ebf 3010 d2be
000000b0: d32c a0be 525d e13e ea51 fa3d dd8d 113f
000000c0: f2b3 103f 49bb abbe a03e c3bd 0038 cb39
000000d0: 3a7c 283f 8e4b b1be dfa6 cd3e d11e 323f
000000e0: dd85 f23e ca04 e33e c2d2 64be 701c 773d
000000f0: e3c5 4f3f 29d6 343e e83e aebe 1273 07bf
00000100: fcbc 893e dd1a 2a3f c1d2 783e 4c08 32be
00000110: c488 24bf 5833 1ebe 80c0 19be 9613 2dbf
00000120: 3551 863e 865c a9be b797 123f 5229 81bf
00000130: a27c d13e 57c7 87be afd4 243e 10f6 1e3f
00000140: 1b1d 13bf a051 8ebe 1477 a1be 10ba 3bbf
00000150: 3052 ee3e ec3f 023e 5627 be3e 40e3 8d3c
00000160: 6041 9dbc e0a3 8c3d 40d9 7fbc 7628 d33e
00000170: 2715 193f f60b 4abd 98a3 313f 442b 2abf
00000180: 60e0 abbd 2a95 f63e ce01 dabe 514f 093f
00000190: 626a 9d3e 107d 603d 3b50 c83e fb63 d8be
000001a0: b788 003f f06b fd3e 007c 7ebe 87ac 0bbf
000001b0: 080d 18be ea94 82be ce9a d13e 9aeb edbe
000001c0: 2936 91be ec8b 73be 6a70 763e d614 fc3d
000001d0: 8229 78be 3b93 ed3e 2755 003f 08c5 033e
000001e0: 8880 20be fb5b 073f 0022 853d 6666 c4be
000001f0: 306a be3d c8be 04bf 43e9 233f 0bd6 bbbe
00000200: 5b72 33bf 309a 5abd 2e1b b0be 1d35 053d
00000210: 0bb3 023f b7a5 c43e 0009 e93c 30f9 e83d
00000220: fe17 973e 78d3 fcbe 2d78 103f f7f1 41bf
00000230: fd1a 313f bbde 0b3e 1c15 b4be 99b1 4d3e
00000240: d477 00bf f821 d6bd 4e70 e83e c2ba 79be
00000250: 1564 063f 5691 2e3d 6a34 19bf 2957 e03d
00000260: 3731 2c3f 6de7 e8be 5979 0e3f 281c d5bd
00000270: ca7a c63e ae6f f53e b354 433f c832 483e
00000280: 5961 033f 2487 9c3e 357c 373f e20f e13e
00000290: ae1b d23e feed f9be 5bb6 fdbe 8eba c03d
000002a0: f98a 00bf 00be 163f 2861 793e 5509 f7be
000002b0: 7a53 8d3e f019 083f 8fc2 483f 6432 90be
000002c0: 7e09 fbbe be28 3d3f 14b5 48be a114 2dbf
000002d0: 30bd 463e 3035 03be cc9b 36bc 213b 9fbe
000002e0: 78a3 e6bd 48cc f23d 7647 dabe cbe1 213c
000002f0: 25a7 973e a38d a43e f02b 5fbd 7865 c43d
00000300: a0ad aa3e a9f3 20bf 8531 723d f33d e23d
00000310: 9583 e23e fb66 46bd 1678 f93e 4c30 18be
00000320: 08f2 35be 94ec 6bbe e3b8 173f acff 94be
00000330: c0cd 42be 72ea a3be 392a a13e ccea 1ebf
00000340: 6b74 0a3f da3d 78be b025 553e 2b66 093f
00000350: d905 c33e b847 e53d 292b c9be 2ea4 b03e
00000360: 7290 29bf b177 973e 6184 2e3f a2f0 5b3f
00000370: 122b a03e 1896 093e 003c 0b3f 7f6b 01bf
00000380: 16a3 ddbe cb4e 9fbe 387a 843d 7364 16bf
00000390: 56d6 4bbf a5ae aabe ba04 2ebf 3a8f ab3e
000003a0: 08a4 f9be 5f05 203f ed31 07bf 9c23 a8be
000003b0: 96ab af3e 4cc4 43be e908 243f aedb ec3e
000003c0: 811c 093f 16f4 803e 4929 093f 45f8 abbe
000003d0: c73c a5be 80bc 6f3a 3cc9 203e d78f 34bf
000003e0: afd1 f6bc dfc3 4e3f 4ce4 fabe 27c6 0d3f
000003f0: 67b8 233f 2214 d2be 8d10 0c3f ee48 a73e
0.29466882 0.5632059 0.708049 0.60217875 -0.61480623 -0.5473259 0.1520617 0.11770213
0.07295547 -0.35541567 0.16473441 -0.38397446 0.3373987 0.028327227 -0.5106549 -0.18964069
0.7557224 0.086902335 -0.43192452 -0.20359778 -0.33653095 -0.3917584 -0.5884791 0.056908622
0.28087896 0.050742626 0.034745935 -0.06205385 -0.47134152 -0.357513 -0.3354288 -0.01612866
0.45729062 0.6466299 -0.0062044263 -0.021251023 0.76969504 -0.5707344 0.5482928 -0.6621057
-0.57281595 -0.46879816 -0.55771744 -0.41027975 -0.31284198 0.4401651 0.12222655 0.5685709
0.56524575 -0.33541325 -0.09533429 0.000387609 0.65814555 -0.34627956 0.40166375 0.6957827
0.47367755 0.4433959 -0.22346023 0.060329854 0.81161326 0.1765982 -0.3403237 -0.5290996
0.26901996 0.6644724 0.24299146 -0.17385978 -0.6427119 -0.15449274 -0.15014839 -0.6760801
0.2623383 -0.33078402 0.5726275 -1.0090735 0.409154 -0.26519272 0.16096757 0.6209421
-0.57466286 -0.2779665 -0.31536162 -0.73330784 0.4654708 0.12719697 0.37139386 0.017320275
-0.019196212 0.06867194 -0.015615761 0.41241807 0.597979 -0.049327813 0.6939025 -0.6647227
-0.083924055 0.48160678 -0.42579502 0.5363665 0.30745226 0.05480677 0.3912371 -0.4226378
0.5020861 0.49496412 -0.2485199 -0.5456013 -0.14848721 -0.25504237 0.4093842 -0.46468812
-0.28361633 -0.23783845 0.2406632 0.12308662 -0.24234584 0.4640139 0.5012993 0.1286813
-0.15674031 0.52874726 0.065006256 -0.38359374 0.092975974 -0.5185361 0.64027804 -0.3668674
-0.7009637 -0.0533697 -0.34395736 0.032521356 0.5105445 0.3840768 0.028446674 0.11375654
0.29510492 -0.49380088 0.56433374 -0.75759834 0.69181806 0.13659184 -0.35172355 0.2008728
-0.50182843 -0.10455698 0.45398182 -0.24387649 0.52496463 0.042619072 -0.598456 0.109541245
0.67262596 -0.45489064 0.5565391 -0.10405761 0.38765556 0.47936767 0.76301116 0.19550622
0.51320416 0.30571854 0.716739 0.4395743 0.41036743 -0.48814386 -0.4955319 0.094105825
-0.50212055 0.58883667 0.24353468 -0.48249307 0.2760275 0.5316458 0.7842187 -0.28163445
-0.4903068 0.7389029 -0.19600326 -0.676096 0.19408107 -0.12813258 -0.011145543 -0.310998
-0.11261648 0.1185537 -0.42632645 0.009880493 0.2961971 0.3213931 -0.05448526 0.09589666
0.3333559 -0.62871796 0.059129257 0.11046972 0.44241014 -0.048438054 0.4872443 -0.14862174
-0.17768109 -0.23039466 0.5926649 -0.29101312 -0.190238 -0.32014805 0.31477526 -0.6207702
0.5408389 -0.24242344 0.20815158 0.5367152 0.380904 0.1119532 -0.3929074 0.3450026
-0.6623603 0.29583505 0.68170744 0.8591405 0.3128286 0.13436162 0.5438843 -0.5055465
-0.43288487 -0.31114802 0.06468624 -0.58747023 -0.79623926 -0.33336368 -0.6797596 0.3350771
-0.48757958 0.62508196 -0.52810556 -0.32839668 0.34310597 -0.1911785 0.64076096 0.46261352
0.5355912 0.25186223 0.5357862 -0.33587852 -0.32272932 0.0009145215 0.15701765 -0.7053198
-0.030129282 0.80767626 -0.49002302 0.5538048 0.6395325 -0.41030985 0.54712754 0.32672828

fc_1.bias f4 [128]
00000000: 462e 463d 2577 03bd 0db5 263f 2825 16be
00000010: 5a83 803e da90 d63e ec4a 03bf 4c75 af3e
00000020: e0c4 76be 8984 26bf fb36 02bf de86 083f
00000030: 062b f0be 0ae8 013f 20c2 e0bc 8504 97be
00000040: 1f4f 2c3f 0848 13be 2c4e 863c d959 26bf
00000050: 7388 c33e a81d 06be a27b 08bf 800d 1e3f
00000060: 643e 413d 1c07 1cbe db99 763d e8f6 0d3f
00000070: d0bf b0be a069 1abd c9e8 15bd 2957 683e
00000080: 02f6 343f 02f1 c23e af04 f2be c90b 2ebf
00000090: 262d b83d 97d1 60be 5ee2 da3e 6237 123f
000000a0: 5b69 c43e c437 c03e cf32 1e3f 3d43 29bf
000000b0: 93ff b5be 1a7a d6be f5f6 043f 7933 473e
000000c0: 551a d8be eec2 cebe c141 c3be 6e41 013f
000000d0: 9176 163f 709f b5bd ec27 4cbe 748b 98be
000000e0: 27c0 e6be d26f 2a3f 546f 253e 5341 1dbf
000000f0: ed81 81be b716 1b3f 9621 e8be 8bd6 18bf
00000100: dbcd 87be 6a8c 143f 76bb 223e 2896 26be
00000110: 2cbe 02bf 0c9b f03e e324 253f 5b32 153f
00000120: f037 a9bd 7066 6e3e 9a89 263f 2b0a 3f3f
00000130: 9650 8b3d 89f3 1bbf fc4e 9ebe 6bd3 a6be
00000140: e296 fb3d d0d5 ab3e 9c7b 14bf 4d2c a93e
00000150: 99da 30be 6bcf d2be 720f 4ebc 4c88 77be
00000160: 88b1 783e 2aea 07bf 55a7 1bbf 50ce 173f
00000170: f0ca debd f688 913e 2b3b 103f d06d 09be
00000180: 7f41 0a3f 8d04 cb3e 7a41 9c3e f679 05bf
00000190: b481 15be 9a2c 1abf d050 e9bd 02f2 b93d
000001a0: dc0d 33bf bacb 023e 2f9b 9c3d 0679 943e
000001b0: aec2 1d3f ad34 9cbe 935a ccbe 7e75 133f
000001c0: 96ea 30bf ba15 debe e32b a43b 1d88 01bf
000001d0: e09f 30bf e4dc 01bf ad8b cabe 8f5e 283f
000001e0: 3688 4cbe a812 733d 2bb7 183f e36f 85be
000001f0: 45ed 8fbd 1f9b 2d3f fc1f 1fbf 36b8 2ebf
0.048383974 -0.032096047 0.6512001 -0.14662611 0.25100213 0.41907388 -0.51286197 0.34269178
-0.2409854 -0.6504598 -0.50865144 0.5333079 -0.46907824 0.5074469 -0.027436316 -0.29495636
0.6730823 -0.14382946 0.016394697 -0.64980847 0.3819004 -0.1309725 -0.5331365 0.6173935
0.04717864 -0.15237087 0.06020532 0.55454874 -0.3452134 -0.037698388 -0.036598954 0.22689499
0.7068788 0.380745 -0.47269198 -0.6798673 0.089929864 -0.21954952 0.4275083 0.5711576
0.3836163 0.37542546 0.6179628 -0.6611822 -0.3554655 -0.4189003 0.51939327 0.19453229
-0.4220759 -0.40383095 -0.38136104 0.5049046 0.5877467 -0.08868301 -0.19937104 -0.29793894
-0.45068476 0.66576874 0.1615575 -0.614278 -0.25294438 0.60581535 -0.45338124 -0.59702367
-0.26524243 0.58026755 0.15891823 -0.16268218 -0.5107143 0.4699329 0.6450941 0.5827996
-0.08262622 0.23281264 0.65053713 0.7462489 0.0680248 -0.6091848 -0.30919635 -0.32583174
0.12284638 0.33561563 -0.5800111 0.3304161 -0.17270888 -0.41173872 -0.012576925 -0.24173087
0.24286473 -0.5309168 -0.60802203 0.5929918 -0.10878551 0.28424805 0.56340283 -0.13420796
0.5400619 0.3965191 0.30518705 -0.5213922 -0.14600259 -0.60224307 -0.11392367 0.090793625
-0.6994302 0.12773028 0.076467864 0.28998584 0.6162518 -0.30508938 -0.39912853 0.57601154
-0.6910795 -0.4337595 0.0050101145 -0.5059832 -0.6899395 -0.5072768 -0.3955969 0.65769285
-0.19973835 0.059343964 0.5965449 -0.26061925 -0.070276774 0.6781482 -0.6215818 -0.68249834

fc.weight f4 [2, 128]
00000000: a52a 0cbd a83e 4abe 29fd 3bbc 8638 f0bc
00000010: 5a2f 3dbb 1984 d3bc 868b 6b3d 99b6 273e
00000020: 21b6 84be 1047 e83c c0dc 013b b175 bbbc
00000030: b29d 433d 60b8 25bd 735c 963d 681e f03c
00000040: 0f91 8a3d f25e edbc ed3c adbd 9009 debb
00000050: 1ad5 db3d 11aa a03d 0fa5 9b3d 938c ee3d
00000060: e882 afbc a135 913d 1b8f aabd 2aca cd3d
00000070: 8583 173a 5047 ce3c ece6 07be b3ac 1f3e
00000080: 08eb ea3c 7a95 bb3c 8a65 5c3d 8039 e23a
00000090: c351 e1bc 388c 38be 5dfa 09bd c82a c33b
000000a0: db1c cc3d c0e4 c93c 7fdb 943d 0cf1 5fbd
000000b0: dba7 3abd 1985 21bd 3546 0a3d 57ef 60bd
000000c0: 9eba 253d 50e0 963b 8d47 63bd d5cd a33c
000000d0: 584d ff3c 5eb1 743d e868 5fbc 10bf c9bb
000000e0: 8054 54bc dfa2 ab3d 9e96 e43e 6e84 19bd
000000f0: b61d 4ebd 9c24 973d a9e2 8fbd a6b3 24bd
00000100: 25a5 4ebd 4cc3 c83d 7df4 2cbd 06ff 363d
00000110: 0c86 bbbc 59b0 41bd 1b0e 1abd 65ba 083e
00000120: 9f4d b3bd 130f bebc 32d9 343a a710 093e
00000130: 8edb 4abd 00d5 863b 7744 1cbd ac65 07bf
00000140: 2f9e 3dbc 6667 6bbd 44c4 9dbc 4db6 053e
00000150: 92c7 22bc 4cd6 61bd 0b90 00be 2c0d e8bd
00000160: d063 e3be 38cf e93c 503b acbd d8f1 b23d
00000170: 2772 20bd 51e9 323e b367 ea3b 8235 5e3d
00000180: 0d8f c83d 591d 3fbd f1e7 bb3d ba93 5f3d
00000190: ea59 683d 55a6 ac3d 3e07 333d 94c0 6abd
000001a0: 0d2f b13d 8fd1 9f3c 0bd0 e43c 32b5 143d
000001b0: a328 873d 7378 55be 8823 a93c 077b e23d
000001c0: d508 a1bd 8c2d 003d 1b68 87bd b036 c33c
000001d0: 6ca2 8cbd 7e24 643d 0acc 633d ccd0 0ebd
000001e0: 04e8 12be d899 93bd 97e1 943d 263e 723d
000001f0: 8140 203e b91d 0a3e dfbe 81bd eebc 39bd
00000200: dd03 12bd e36f dc3d 365c 893c 609e f3bb
00000210: 0871 6f3d 6030 87bc 00d2 2a3b 1835 8b3b
00000220: b731 5a3e fde0 93bd 0c7c 8cbd bcf9 acbd
00000230: 1e97 3f3d 86a0 aebc fca2 a4bc b148 afbd
00000240: f312 c7bc a836 c7bc 1469 153e 8844 753c
00000250: f60d dabd a4d8 e83c 36f0 6f3d 3eb4 983d
00000260: 57a5 d33d 982b c63c fa24 7fbc 596d 15bc
00000270: 5a5a a4bd 20f3 f13c df95 233e 07ca 9abd
00000280: 9dd4 c63d 104e dfbc 82bb 3dbd a042 a53c
00000290: 86c9 833d 32d3 33bc 7fad c03d 7cb2 88bd
000002a0: 891d 0bbe dd8d c9bc c0c7 c53d 3ac2 263d
000002b0: 7849 b2bc 407a 46bb 4a0b 663d 190c 663c
000002c0: 7590 ac3d a06b afbc e8d0 78bd f3c5 b23d
000002d0: 4c10 88bc a37c aabd 9ee9 36bd bb8a 10bd
000002e0: 1089 8fbc fb95 2e3c 2cb6 09be d822 6f3c
000002f0: edd4 853d 35cd 1c3c f689 743d 6691 13bd
00000300: 7a18 7f3d 289e 863d 608e 423d 75e4 94bd
00000310: e38e 98bd a57a db3d 0c4a be3d 8ff1 91bd
00000320: 04a4 d4bc af0e ab3d 8bf8 3d3d dd62 f9bb
00000330: 4b2d 773c 02ed 5abd c89b 5fbc de9e 0e3d
00000340: 0257 143d 9604 943d aa97 a8bd 15f3 b0bd
00000350: cc28 0cbd a075 a6bb 23b5 2f3e aa8d e43d
00000360: 11a7 613d 9099 80bb f8cf 37bc 5547 6dbd
00000370: 94f7 f3bc 0116 29be 31e3 f73b 90a1 80bd
00000380: 0aba 6e3d babc 92bd b3e0 c6bc c7e5 ad3d
00000390: f280 1cbd 1441 a7bc b0cf c63b 2882 a53d
000003a0: 4c5e c93c 4507 b6bb 7219 e83d c15d 9f3c
000003b0: af2d 23bd 0e81 0ebd a027 eb3b 2e02 f239
000003c0: 81f5 803d 18ba 66bc aa96 373e d112 a9bd
000003d0: b0b3 f0bb ded7 383d 6bc0 a73d 2821 e5bc
000003e0: 6af3 d53d 8d66 993c 91d5 08bd d0ab 59bc
000003f0: 5ce1 4cbe 8b5a 7ebd 55a8 b33d 4b6f 15bd
-0.034220356 -0.19750464 -0.011473932 -0.029323827 -0.0028867335 -0.025819825 0.057506107 0.16378249
-0.25920203 0.028354198 0.0019815415 -0.022883268 0.04775781 -0.040459037 0.07341852 0.029311374
0.06765949 -0.028975938 -0.08458886 -0.0067760423 0.10734005 0.078449376 0.07599842 0.11647906
-0.021424726 0.07090307 -0.083280765 0.10048325 0.0005779791 0.025180489 -0.13271683 0.15593223
0.028676525 0.022898424 0.053807773 0.0017259568 -0.027504807 -0.18022239 -0.03368603 0.0059560277
0.09966441 0.02464521 0.07268428 -0.05467324 -0.045570236 -0.039433572 0.03375836 -0.054915752
0.040461175 0.004604377 -0.055488158 0.01999561 0.03116481 0.059739463 -0.013635851 -0.0061568096
-0.0129595995 0.083806746 0.44646162 -0.03747981 -0.050321303 0.073800296 -0.07025654 -0.04021039
-0.050450463 0.09802875 -0.04222535 0.044676803 -0.022891067 -0.04728732 -0.03761111 0.13352354
-0.087550394 -0.023200547 0.00068988197 0.13385259 -0.04952579 0.004114747 -0.03815123 -0.52889514
-0.011573358 -0.057471655 -0.019258626 0.13057823 -0.009935277 -0.05513601 -0.12554948 -0.11330637
-0.44412088 0.028541192 -0.084097505 0.08737534 -0.039171364 0.17471816 0.007153475 0.054250248
0.0979291 -0.046658847 0.09175099 0.054584242 0.056726374 0.08430163 0.04370808 -0.057312563
0.08651552 0.019509105 0.027931234 0.036305614 0.06599548 -0.20846729 0.020646825 0.11058622
-0.07863013 0.031293437 -0.066116534 0.023829788 -0.06866917 0.055698864 0.05561451 -0.034867093
-0.1434632 -0.07207078 0.0726959 0.0591413 0.15649606 0.13487901 -0.06335234 -0.045346193
-0.035648216 0.10763528 0.016767602 -0.0074346513 0.058457404 -0.01650256 0.002606511 0.0042482726
0.21308027 -0.072206475 -0.068595976 -0.084460706 0.046774976 -0.021316778 -0.020097248 -0.08558787
-0.024301028 -0.024318054 0.14590865 0.014969952 -0.10647194 0.028423615 0.058578692 0.074562535
0.103342704 0.024190709 -0.015572781 -0.009120309 -0.08025046 0.029534876 0.1597514 -0.07558065
0.097085215 -0.027258903 -0.0463214 0.02017337 0.06434922 -0.010975646 0.09408092 -0.06674668
-0.13585486 -0.024603778 0.0965724 0.040712573 -0.021763548 -0.003028527 0.05616311 0.01404097
0.084259905 -0.021413624 -0.060746104 0.08729162 -0.016609333 -0.08324554 -0.04465639 -0.035288554
-0.017521411 0.010655875 -0.134484 0.01459571 0.06534753 0.00957041 0.059701882 -0.036027335
0.062279202 0.06573135 0.04749906 -0.07270137 -0.074491285 0.10716752 0.09291467 -0.07126152
-0.025957115 0.0835241 0.046379607 -0.0076106624 0.015086482 -0.053448685 -0.013647981 0.034819476
0.03621579 0.07227437 -0.082320526 -0.08640114 -0.034218594 -0.00507994 0.17158942 0.11159833
0.055090968 -0.003924556 -0.011219017 -0.057929356 -0.02978114 -0.165123 0.007564925 -0.062808156
0.05828289 -0.07164903 -0.024277067 0.08491092 -0.03820891 -0.020416774 0.0060672387 0.08081466
0.024581097 -0.005555066 0.11332978 0.019453885 -0.03983849 -0.034791045 0.0071763545 0.0004615946
0.06296826 -0.014082454 0.17928568 -0.08255542 -0.007345639 0.045127742 0.08190998 -0.027969912
0.10446818 0.018725658 -0.033406798 -0.013285592 -0.20007843 -0.062098067 0.08772341 -0.03648309

fc.bias f4 [2]
00000000: 84b5 07bd 817d 98bd
-0.03313209 -0.07445813
